back-end/public/Script/model.pth (torch, 99335 bytes, 5 tensors)

fc1.weight f4 [64, 347]
-0.04497949 -0.008827701 0.0025346465 -0.027445909 0.043434158 -0.032031544 0.0014030896 -0.048156295
0.027925499 0.007936738 -0.00609152 0.009345092 -0.027877042 0.017630361 0.0014797747 0.014516786
-0.02519156 -0.05309801 -0.010593593 0.02962488 -0.03763737 0.011762589 0.013056539 -0.017627701
-0.036668636 -0.01838446 -0.037652608 0.02248592 -0.028284408 -0.041252643 0.013554737 0.047727622
-0.02397807 0.0027233288 0.048210062 0.048278555 -0.015796851 0.024459004 -0.025935186 -0.04133738
0.01992976 0.00077344105 0.042817704 0.04332955 -0.050875228 0.015385859 -0.002224002 -0.014065389
-0.021099906 0.044410624 -0.034736432 0.005296968 0.017212093 -0.040700853 0.04397559 -0.03807199
-0.013099685 -0.051332504 0.0518917 -0.004463952 -0.0033256598 0.004787881 -0.031711366 0.020094015
0.021282926 0.019225456 -0.007778015 -0.029706439 0.051703416 -0.048844587 -0.0100300275 0.019852027
-0.045670804 -0.040286567 -0.030737953 -0.045627538 -0.0214739 -0.030881379 0.010010675 -0.009054434
-0.015507001 -0.015596446 0.042430185 -0.03963979 0.029824927 0.01965738 0.010269187 -0.031916417
0.0076736547 0.040382177 0.052884974 -0.008181058 -0.030171515 0.04234232 0.035924837 0.04213071
0.048466466 -0.017583955 -0.018682089 -0.049990915 -0.022197116 -0.035897285 0.022127748 0.0013872422
-0.019121312 0.027800232 0.0085239075 0.018886574 -0.017505664 -0.013489835 -0.01138296 -0.007458996
-0.012284581 -0.029163212 0.049276978 0.019711949 -0.026402926 0.013921671 0.01852893 0.053018004
-0.01436992 0.02770982 -0.033996 0.002886951 0.027181335 -0.032402247 0.0038129129 0.023213
-0.0056116916 -0.0016095601 -0.017196812 -0.00372893 -0.026351167 0.01482071 -0.030021274 0.03916906
-0.026128655 0.023967192 -0.024689628 0.041550435 -0.043608446 0.045162417 0.044233233 -0.028685303
0.019350544 -0.002717089 0.012820877 0.010996804 0.019092053 -0.023939447 -0.033910755 -0.040831245
-0.042149715 -0.016614962 0.003297504 -0.015330732 -0.04510468 -0.0069386773 0.03405016 -0.016702745
0.011886157 0.032736175 -0.02427109 -0.04181351 -0.036146276 0.01397308 0.050479174 0.0125483945
0.019025967 -0.03471327 -0.04205984 -0.036290016 0.030197076 0.04390312 -0.0048784353 -0.04341288
-0.05025385 -0.05233501 0.029727623 -0.031547546 0.0010551102 -0.035519224 -0.02828268 -0.02442657
0.038205385 0.024124146 0.021246634 -0.016998563 0.003989786 -0.030172538 -0.045251332 -0.0071207173
0.037935503 -0.021785285 0.047688074 7.584691e-06 -0.02834617 -0.029551424 0.022437826 0.053131364
0.039507948 0.014612675 -0.024594296 0.010178648 -0.01228258 -0.040403403 -0.045966525 -0.0054715313
0.023334175 0.029806018 -0.05083289 0.0003007315 -0.04340303 -0.009216271 -0.026183123 -0.011360254
-0.037001416 0.015487172 0.017246254 0.008040529 0.038348645 0.025564097 0.022134133 0.025070004
-0.053041354 -0.039833188 0.03683175 -0.049496144 -0.022603778 0.0022284053 0.025860712 0.042705417
-0.0023956746 -0.03277812 0.039089397 -0.018672936 0.046791464 -0.049946077 -0.038247857 0.001813367
0.011893436 0.024116151 -0.05206438 0.043843977 -0.034324266 0.0061238706 0.021163426 0.018662333
-0.030153397 0.0005477257 0.01265987 0.038406126 0.034816325 0.017590247 0.0010321215 -0.04825261
00000000: 6a3c 38bd 10a2 10bc 501c 263b 3ed6 e0bc
00000010: 04e8 313d 8233 03bd e0e7 b73a 893f 45bd
00000020: 04c4 e43c 1809 023c 609b c7bb 281c 193c
00000030: 655e e4bc 8c6d 903c 00f5 c13a d0d7 6d3c
00000040: 885e cebc 4d7d 59bd c090 2dbc e0af f23c
00000050: a529 1abd e0b7 403c 18eb 553c f867 90bc
00000060: da31 16bd 029b 96bc 9f39 1abd 6434 b83c
00000070: b4b4 e7bc 88f8 28bd b014 5e3c 0a7e 433d
00000080: a86d c4bc e079 323b ea77 453d bcbf 453d
00000090: 6668 81bc 405e c83c 0776 d4bc 6251 29bd
000000a0: bc43 a33c c0c0 4a3a 9e61 2f3d 547a 313d
000000b0: 8b62 50bd f814 7c3c 90c0 11bb 8472 66bc
000000c0: b6d9 acbc eae7 353d ca47 0ebd 3092 ad3b
000000d0: 6000 8d3c f0b5 26bd c01f 343d 60f1 1bbd
000000e0: 10a0 56bc 0842 52bd 648c 543d 5846 92bb
000000f0: 50f3 59bb a8e3 9c3b c7e3 01bd 349c a43c
00000100: 8859 ae3c b47e 9d3c b8de febb eb5a f3bc
00000110: f6c6 533d 4311 48bd fc54 24bc b8a0 a23c
00000120: 4f11 3bbd 8703 25bd 29ce fbbc f1e3 3abd
00000130: 08ea afbc f2fa fcbc d003 243c 0c59 14bc
00000140: 1411 7ebc 3c88 7fbc 46cb 2d3d 555d 22bd
00000150: 6853 f43c 8408 a13c 1840 283c caba 02bd
00000160: 4873 fb3b c867 253d ea9d 583d d809 06bc
00000170: 412a f7bc 246f 2d3d ec25 133d 4091 2c3d
00000180: c684 463d 3a0c 90bc 2e0b 99bc 46c3 4cbd
00000190: bad6 b5bc 0809 13bd 4045 b53c 20d4 b53a
000001a0: 4ca4 9cbc 50bd e33c dca7 0b3c 04b8 9a3c
000001b0: 0a68 8fbc 7804 5dbc 987f 3abc 986a f4bb
000001c0: 4445 49bc b0e7 eebc a8d6 493d f47a a13c
000001d0: f34a d8bc b817 643c fcc9 973c 6829 593d
000001e0: d06f 6bbc b4ff e23c 643f 0bbd 0033 3d3b
000001f0: 64ab de3c 38b8 04bd 10e2 793b 3029 be3c
00000200: 48e2 b7bb e0f7 d2ba 54e0 8cbc 1061 74bb
00000210: 67de d7bc 90d2 723c 2def f5bc bc6f 203d
00000220: c30b d6bc d856 c43c e741 cabc ca30 2a3d
00000230: c59e 32bd 3afc 383d e82d 353d 71fd eabc
00000240: 0885 9e3c 3011 32bb a80e 523c f02b 343c
00000250: f066 9c3c a91c c4bc 01e6 0abd aa3e 27bd
00000260: 2ea5 2cbd 1a1c 88bc f01a 583b c02d 7bbc
00000270: afbf 38bd d85d e3bb 2e78 0b3d 32d4 88bc
00000280: 28be 423c 5e16 063d 2ad4 c6bc a544 2bbd
00000290: 1e0e 14bd 58ef 643c 40c3 4e3d c897 4d3c
000002a0: 58dc 9b3c 802f 0ebd f046 2cbd d7a4 14bd
000002b0: dc5f f73c c2d3 333d 48db 9fbb b4d1 31bd
000002c0: fbd6 4dbd 3c5d 56bd 5887 f33c 0038 01bd
000002d0: a04b 8a3a 9b7c 11bd 14b1 e7bc 3b1a c8bc
000002e0: 407d 1c3d 00a0 c53c 6c0d ae3c 9240 8bbc
000002f0: c0bc 823b 662c f7bc 7659 39bd e854 e9bb
00000300: 4262 1b3d 0e77 b2bc 9254 433d 0080 fe36
00000310: 3a36 e8bc d415 f2bc 88cf b73c 46a0 593d
00000320: 16d3 213d 006a 6f3c fa79 c9bc 58c4 263c
00000330: e03c 49bc 0a7e 25bd 6547 3cbd 884a b3bb
00000340: 5027 bf3c c02b f43c 2636 50bd 80ab 9d39
00000350: 60c7 31bd d8ff 16bc fd7d d6bc 5c20 3abc
00000360: cc8e 17bd e8bd 7d3c 0448 8d3c 6cbc 033c
00000370: 7813 1d3d cc6b d13c a452 b53c 9c5f cd3c
00000380: e441 59bd 2028 23bd e4dc 163d 78bc 4abd
00000390: 8f2b b9bc 700a 123b d8d9 d33c e0eb 2e3d
000003a0: c000 1dbb 5a42 06bd 341c 203d fcf7 98bc
000003b0: 68a8 3f3d 4294 4cbd c9a9 1cbd 80ae ed3a
000003c0: b0dc 423c 3c8f c53c 7641 55bd be95 333d
000003d0: 9a97 0cbd c0aa c83b ec5e ad3c c0e1 983c
000003e0: 4204 f7bc 4095 0f3a 586b 4f3c be4f 1d3d
000003f0: 909b 0e3d 6c19 903c 4048 873a 87a4 45bd

fc1.bias f4 [64]
-0.037083622 -0.03678265 0.010887784 0.00038187578 0.034582313 -0.019256866 0.035887413 -0.026070204
-0.007454013 -0.0002426058 -0.032862313 -0.026107308 -0.029362839 0.052584186 0.0162654 0.0065898933
-0.019158289 0.022341102 -0.05067818 0.02828627 -0.02678525 0.00049028546 0.024687186 -0.0040138527
-0.034858435 0.006389167 -0.02616143 0.044290476 -0.018671945 0.035270378 -0.03496715 0.020925581
-0.047340196 0.0372629 -0.034657735 0.033656605 -0.051624846 -0.030020224 -0.0067286603 0.038223214
-0.02097366 -0.028386667 -0.0049433038 0.06995933 -0.0203762 0.028311431 -0.029918734 0.004989464
-0.07617988 0.024633057 -0.03983765 0.050701134 0.028634062 0.005071242 -0.06061802 -0.008525835
-0.05578465 0.029359676 0.007909232 -0.017685521 -0.034713626 0.046410047 -0.036046408 -0.052146558
00000000: ffe4 17bd 67a9 16bd ad62 323c 8036 c839
00000010: 2fa6 0d3d 93c0 9dbc aefe 123d 2e91 d5bc
00000020: cb40 f4bb 0064 7eb9 a29a 06bd fede d5bc
00000030: 568a f0bc 8462 573d 043f 853c 08f0 d73b
00000040: d8f1 9cbc b004 b73c ec93 4fbd 9cb8 e73c
00000050: be6c dbbc 8086 003a c83c ca3c a386 83bb
00000060: b8c7 0ebd 385c d13b 7f50 d6bc ee69 353d
00000070: e8f5 98bc ac77 103d b739 0fbd 206c ab3c
00000080: cbe7 41bd fca0 183d 45f5 0dbd 82db 093d
00000090: 9374 53bd f9ec f5bc 187c dcbb f28f 1c3d
000000a0: f4d0 abbc 288b e8bc 70fb a1bb d646 8f3d
000000b0: fdeb a6bc 60ed e73c 2218 f5bc a87e a33b
000000c0: 3204 9cbd 44cb c93c ce2c 23bd feab 4f3d
000000d0: fb91 ea3c a92c a63b 9a4a 78bd f2af 0bbc
000000e0: 727e 64bd b483 f03c b995 013c 3ae1 90bc
000000f0: e02f 0ebd 7618 3e3d 66a5 13bd a197 55bd

fc2.weight f4 [32, 64]
0.04071425 0.058995694 -0.030366069 0.068017125 0.026686007 0.013376285 0.07239747 -0.11117965
0.01875218 -0.050812006 0.01749663 -0.050861184 -0.020091033 -0.07597719 0.07188155 -0.1231579
-0.045700744 0.07685508 0.08980778 -0.062000528 -0.10158725 -0.012191847 0.111336514 0.06155102
-0.07804053 -0.03655611 0.09877171 0.08172916 -0.11454766 -0.099844724 -0.10710085 0.051132858
0.11244665 -0.050832048 -0.03513454 -0.054626543 -0.015809432 -0.07884288 -0.007754177 -0.10354374
-0.03923499 0.06614891 0.06135218 -0.0978415 0.020739615 -0.0972646 0.060092226 -0.08795634
-0.07819947 0.1045091 -0.0669149 0.016131908 -0.06328727 0.0074373838 -0.047935694 0.09854098
-0.049290482 -0.046114057 0.104960024 -0.08982682 0.0703661 0.0055541545 0.047183275 -0.02685146
0.10990605 -0.005792916 -0.030075504 -0.11459598 -0.040732443 -0.09944991 -0.09984269 0.036105424
-0.11073163 -0.052284896 -0.106024936 0.07429278 0.15152554 -0.002382189 -0.07301664 -0.11022881
0.068021044 -0.031866908 0.060617816 -0.07681459 0.0442705 0.097022295 -0.026307225 -0.13232505
0.090022616 0.038871437 -0.04535171 0.067224726 0.097123116 -0.096393704 0.005731397 0.09730829
-0.039837822 0.112497866 0.011069953 0.018146124 -0.092236936 0.06501305 0.03805639 0.078552365
0.016664967 0.07080501 -0.119772926 -0.028730271 0.0050479495 -0.049804807 -0.078113556 -0.008592412
-0.07488149 0.11834188 -0.053660113 0.037224725 -0.050267387 -0.084053576 0.118874915 0.08779231
0.11286873 -0.053398058 0.08051673 0.1059666 -0.006184344 -0.011520088 0.015270278 -0.051138055
-0.117881194 0.073903605 -0.07410423 0.0126231015 0.1478211 0.10330778 0.06818641 -0.028148934
-0.0784863 0.08467002 -0.03761427 0.06637497 -0.12742776 0.046742275 -0.12369107 0.05355294
-0.08774513 -0.02712892 -0.013406746 0.04122898 -0.06118934 -0.0044430792 -0.07865575 0.0011863486
-0.051627904 -0.032849163 0.112124786 -0.056647986 0.10782368 0.09552202 -0.011446537 -0.0016989261
0.06307697 0.089767754 -0.11864889 0.0686883 -0.0767847 0.05287078 0.09677257 0.102593556
0.0046555647 0.10771666 0.041223884 0.1572478 0.0061979336 0.00054734945 -0.0037973076 -0.06777929
0.023893414 -0.1173328 -0.11610021 -0.090287596 -0.12493072 0.06677867 -0.11448653 0.04979915
-0.054519735 0.11627422 0.07519916 -0.027544513 -0.021897797 0.076803416 -0.10019986 0.012262593
-0.040580556 0.044370458 0.016582664 0.05339095 -0.04132658 -0.06823007 0.010560638 0.06301643
0.06533988 0.02287224 -0.077029526 -0.03749095 0.08810177 -0.0073712766 0.009972528 -0.06912811
-0.052222088 0.10883483 0.064102225 -0.119375855 -0.0574248 0.09280115 -0.034147114 -0.004522814
0.002567016 -0.049917117 -0.11131471 0.055482507 0.11703817 0.091835156 0.106942125 0.08746819
0.033473328 -0.037626132 0.057661667 -0.03781627 0.09907423 -0.047919065 0.07651645 -0.049984425
0.08419193 0.0054122144 0.052423015 -0.13926408 0.061766922 0.049821198 -0.021626115 -0.036970526
0.08926358 0.041711807 -0.0768534 -0.09362863 0.12721144 0.06568444 0.13505869 0.022783866
0.018860612 0.024797395 0.0765009 0.038334653 -0.0037111563 -0.02951166 -0.09077743 0.117107324
00000000: fcc3 263d 78a5 713d 43c2 f8bc 904c 8b3d
00000010: 9d9c da3c 3528 5b3c 2045 943d 28b2 e3bd
00000020: 2c9e 993c 4020 50bd 1855 8f3c d153 50bd
00000030: f395 a4bc ee99 9bbd a236 933d 363a fcbd
00000040: b430 3bbd 3266 9d3d 24ed b73d 44f4 7dbd
00000050: fa0c d0bd 50c0 47bc 6604 e43d ec1c 7c3d
00000060: b7d3 9fbd dcbb 15bd d348 ca3d 9e61 a73d
00000070: f797 eabd 647b ccbd b157 dbbd b070 513d
00000080: 6e4a e63d 4435 50bd 3ce9 0fbd 15c0 5fbd
00000090: c882 81bc 6078 a1bd c016 febb be0e d4bd
000000a0: deb4 20bd 1479 873d 6c4c 7b3d 2061 c8bd
000000b0: 20e6 a93c aa32 c7bd 4423 763d 7422 b4bd
000000c0: 0b27 a0bd de08 d63d ae0a 89bd 1027 843c
000000d0: c29c 81bd 4cb5 f33b 3858 44bd dacf c93d
000000e0: d1e4 49bd 18e2 3cbd 48f5 d63d 20f7 b7bd
000000f0: 1a1c 903d a0ff b53b 4043 413d 98f7 dbbc
00000100: 6c16 e13d 80d2 bdbb e760 f6bc 4cb1 eabd
00000110: 10d7 26bd 65ac cbbd 537a ccbd 48e3 133d
00000120: 44c7 e2bd b028 56bd 9a23 d9bd d026 983d
00000130: 8329 1b3e 801e 1cbb c089 95bd a4bf e1bd
00000140: 9e4e 8b3d e086 02bd 634a 783d f850 9dbd
00000150: fc54 353d a0b3 c63d 4082 d7bc 3880 07be
00000160: c75d b83d a837 1f3d b7c2 39bd 1ead 893d
00000170: 7ce8 c63d 106a c5bd 71ce bb3b 9249 c73d
00000180: fc2c 23bd 4865 e63d c05e 353c 2ea7 943c
00000190: b8e6 bcbd 9025 853d 04e1 1b3d 10e0 a03d
000001a0: f884 883c 3802 913d 824b f5bd bf5b ebbc
000001b0: 4569 a53b 2000 4cbd 00fa 9fbd 30c7 0cbc
000001c0: 775b 99bd 3a5d f23d b5ca 5bbd f478 183d
000001d0: 2de5 4dbd 4824 acbd b174 f33d 74cc b33d
000001e0: b927 e73d ecb7 5abd f5e5 a43d 0405 d93d
000001f0: 0aa6 cabb c0be 3cbc 3030 7a3c 2376 51bd
00000200: b26b f1bd c65a 973d f5c3 97bd 20d1 4e3c
00000210: 6a5e 173e 0893 d33d 51a5 8b3d 9898 e6bc
00000220: 6dbd a0bd 7a67 ad3d 6c11 1abd 9aef 873d
00000230: 6c7c 02be d474 3f3d be51 fdbd 545a 5b3d
00000240: b8b3 b3bd 783d debc f8a7 5bbc b8df 283d
00000250: aca1 7abd 4097 91bb 4416 a1bd 417f 9b3a
00000260: c877 53bd d88c 06bd aea1 e53d b807 68bd
00000270: a9d2 dc3d 0ca1 c33d 428a 3bbc 80ae deba
00000280: 802e 813d 28d8 b73d 30fe f2bd 74ac 8c3d
00000290: 4c41 9dbd 088f 583d b230 c63d 921c d23d
000002a0: b58d 983b 8d9a dc3d 60da 283d 9105 213e
000002b0: 0918 cb3b 007c 0f3a 40dc 78bb decf 8abd
000002c0: 1fbc c33c 2e4c f0bd f2c5 edbd b4e8 b8bd
000002d0: addb ffbd 41c3 883d ea77 eabd 32fa 4b3d
000002e0: 1650 5fbd 2e21 ee3d 0402 9a3d 08a5 e1bc
000002f0: 0263 b3bc 1c4b 9d3d 9635 cdbd 0be9 483c
00000300: cc37 26bd ccbd 353d 5ed8 873c 78b0 5a3d
00000310: 0f46 29bd 35bc 8bbd 8706 2d3c c20e 813d
00000320: ead0 853d 905e bb3c a8c1 9dbd 1c90 19bd
00000330: b36e b43d c08a f1bb d063 233c 0a93 8dbd
00000340: d4e6 55bd cce4 de3d 0748 833d 547b f4bd
00000350: 4436 6bbd 880e be3d d8dd 0bbd 1d34 94bb
00000360: 623b 283b e475 4cbd f7f8 e3bd a041 633d
00000370: b5b1 ef3d 1214 bc3d 7904 db3d 8622 b33d
00000380: 541b 093d dc1d 1abd a42e 6c3d 3ce5 1abd
00000390: 6ee7 ca3d c846 44bd a8b4 9c3d 78bc 4cbd
000003a0: d26c ac3d f258 b13b 84b9 563d 3e9b 0ebe
000003b0: 50ff 7c3d 5011 4c3d 4029 b1bc 686e 17bd
000003c0: d3cf b63d 00da 2a3d 5165 9dbd 5ec0 bfbd
000003d0: b743 023e 9085 863d d34c 0a3e 3ba5 ba3c
000003e0: 9281 9a3c e823 cb3c 81ac 9c3d cc04 1d3d
000003f0: df36 73bb 70c2 f1bc 84e9 b9bd f7d5 ef3d

fc2.bias f4 [32]
0.017926494 -0.107398584 -0.0010702563 -0.06585117 -0.1234647 -0.082616106 -0.099705294 -0.003933057
-0.066386044 0.09481776 -0.03767815 -0.07699161 0.10679653 0.010595454 0.096415564 0.098573774
0.08231228 0.054151274 0.022874087 -0.10178066 0.07104267 0.0812903 0.10800424 -0.07468442
0.030711895 0.07453034 0.022125974 -0.05030527 -0.050042447 0.035234153 -0.091142915 0.057599314
00000000: 95da 923c caf3 dbbd d847 8cba fadc 86bd
00000010: 10db fcbd a232 a9bd 4a32 ccbd e0e0 80bb
00000020: 68f5 87bd d02f c23d 6754 1abd c7ad 9dbd
00000030: 24b8 da3d 8e98 2d3c 8675 c53d 0ce1 c93d
00000040: 5793 a83d bacd 5d3d 7062 bb3c 6172 d0bd
00000050: d27e 913d 877b a63d 5431 dd3d 25f4 98bd
00000060: 8397 fb3c 5da3 983d 8841 b53c e60c 4ebd
00000070: 4ff9 4cbd b051 103d 23a9 babd 42ed 6b3d

fc3.weight f4 [1, 32]
0.04281675 0.16325566 -0.19146886 0.116023324 -0.01586473 -0.02060306 -0.1095079 -0.091737606
0.009671882 -0.12076018 -0.011542116 -0.25968242 0.08103725 -0.08121833 -0.13695681 -0.08839768
0.115009174 0.015305019 0.010122133 -0.08888396 0.12443347 -0.022138612 -0.0013033408 0.08830398
0.12567663 0.083836734 0.09905772 -0.16817589 0.16899157 0.11022441 -0.12281356 0.048489925
00000000: 9e60 2f3d 7e2c 273e 6a10 44be a39d ed3d
00000010: c0f6 81bc c0c7 a8bc ae45 e0bd ede0 bbbd
00000020: d076 1e3c 1d51 f7bd 251b 3dbc 18f5 84be
00000030: dcf6 a53d cc55 a6bd 683e 0cbe d809 b5bd
00000040: ee89 eb3d e7c1 7a3c 4ed7 253c cb08 b6bd
00000050: fad6 fe3d 095c b5bc dcd4 aaba b8d8 b43d
00000060: 60b1 003e 98b2 ab3d c6de ca3d 4d36 2cbe
00000070: 200c 2d3e 56bd e13d ad85 fbbd 5f9d 463d
