back-end/public/Script/model.pth (torch, 99847 bytes, 5 tensors)

fc1.weight f4 [64, 349]
0	0xbcd97572	-0.02654526
1	0xbc63bd7c	-0.013900157
2	0x3c1dac8c	0.009623658
3	0xbc8a19a4	-0.01685793
4	0xbd0b734a	-0.034045495
5	0xbd3bbfde	-0.045837276
6	0xbca17d88	-0.019713178
7	0xbcedd270	-0.029031008
8	0x3d57c8a7	0.05268159
9	0x3d452673	0.04813237
10	0x3d1adaa3	0.037806164
11	0x3d3a8d2f	0.0455448
12	0xbc9dd68e	-0.019267347
13	0xbc2b441c	-0.01045325
14	0xbd1de45e	-0.038547866
15	0x3cee5486	0.029093038
16	0x3d1fe37f	0.039035317
17	0x3d0bb5b5	0.034108836
18	0x3cbcc81a	0.023044635
19	0x3c59476c	0.013261657
20	0x3c938472	0.01800749
21	0x3ca76bfa	0.02043723
22	0x3ce57ad6	0.028012674
23	0x3d0e32b9	0.03471634
24	0xbc779f44	-0.0151136555
25	0x3ca1f436	0.01976977
26	0xbb901018	-0.00439645
27	0x3d571c67	0.05251732
28	0xbd02c7e6	-0.03192892
29	0x3d446531	0.047948066
30	0xbd0cce6c	-0.034376547
31	0x3ba2ae08	0.004964594
32	0xbccabfdb	-0.024749687
33	0xbc079a74	-0.008276571
34	0x3c91edda	0.017813612
35	0xbd23d9ec	-0.04000275
36	0xbc22b7cc	-0.009931516
37	0xbd1a8612	-0.037725516
38	0xbcbaa19e	-0.022782143
39	0x3d41e409	0.047336612
40	0x3ccdba16	0.025113147
41	0x3caf4ac2	0.021397952
42	0x3d4ee3ff	0.050510403
43	0xbd5525a4	-0.05203785
44	0x3d090611	0.03345305
45	0xbbdb8c68	-0.0067000873
46	0xbd4d18a4	-0.050072327
47	0x3d2de2b7	0.04245254
48	0x3d5a56f5	0.053305585
49	0x3d03f41f	0.032215234
50	0x3cb644e6	0.02224965
51	0x3b7051d0	0.0036669858
52	0xbc5855a4	-0.013204012
53	0x3b21a640	0.0024665743
54	0xbd3e5003	-0.046463024
55	0x3c581714	0.013189096
56	0x3cee3b0e	0.029080894
57	0xbd216c97	-0.0394102
58	0xbd201507	-0.039082553
59	0x3d3f90a5	0.046768803
60	0xbd1a78ec	-0.037712976
61	0xbd1eb8e2	-0.038750537
62	0x3ba17708	0.0049275197
63	0xbd358f67	-0.044326212
64	0xbcd5aa42	-0.026082162
65	0xbd1ef0b7	-0.038803782
66	0xbd1dc00a	-0.03851322
67	0xbd3aea4a	-0.04563359
68	0x3d17de63	0.03707732
69	0x3bb8ebb8	0.0056433342
70	0xbccc6e63	-0.02495498
71	0xbd3c64f7	-0.045994725
72	0x3b532760	0.0032219514
73	0x3c40bed4	0.011764247
74	0xbbc80470	-0.0061040446
75	0x3c29cd0c	0.010363828
76	0xbc4abf0c	-0.012374651
77	0x3d35f96b	0.044427317
78	0x3bb8f448	0.005644355
79	0x3d32570b	0.043540042
80	0xbbcb8160	-0.006210491
81	0xbd2e171c	-0.042502508
82	0x3d0f5399	0.034991834
83	0x3c251c44	0.01007754
84	0xbbda0e28	-0.0066545196
85	0xbc11a7fc	-0.008890148
86	0xbc9838ca	-0.018581767
87	0xbcc0ad48	-0.023520127
88	0xbd062cef	-0.032757696
89	0xbcf2b96b	-0.02962943
90	0xbcd3aefb	-0.025840273
91	0xbd4b8cd8	-0.049694866
92	0xbcd4ddb9	-0.025984632
93	0x3d3bce5f	0.045851108
94	0x3bf35878	0.007426318
95	0xbd53b0ce	-0.051682286
96	0x3cff4a7e	0.03116345
97	0x3d479955	0.048730213
98	0x3cae4472	0.021272872
99	0xbd587f2a	-0.052855648
100	0x3d2e75a7	0.04259267
101	0x3be9df48	0.007137213
102	0x3d349f5b	0.044097286
103	0x3d470d93	0.04859693
104	0xbc5217c4	-0.012823049
105	0xbd4ba4e6	-0.049717806
106	0x3cb1d1e2	0.021706525
107	0xbb9e69d0	-0.004834391
108	0xbcfe892e	-0.031071272
109	0xbadc5ce0	-0.0016812347
110	0xbd4b28f2	-0.049599595
111	0xbd1646d4	-0.03668864
112	0x3d008fa1	0.031386975
113	0xbd4900a6	-0.049072884
114	0x3d03ba85	0.0321603
115	0x3cc2d7f2	0.023784611
116	0xbc3f4048	-0.011673041
117	0x3c437724	0.011930261
118	0xbd49bd2f	-0.049252685
119	0xbb122580	-0.0022300184
120	0xbbd374d8	-0.006453138
121	0xbb648690	-0.0034870245
122	0x3cb3bdde	0.021941122
123	0xbbc959f8	-0.0061447583
124	0xbd3abf66	-0.045592688
125	0x3d151231	0.0363943
126	0x3cec0de2	0.028815214
127	0x3c9bd08e	0.019020345
128	0x3cab5a0a	0.020916957
129	0x3d142701	0.03617001
130	0x3cb37afa	0.021909226
131	0x3c5c828c	0.013458859
132	0x3c3af8bc	0.011411842
133	0x3d112ecd	0.035445023
134	0xbbdbf828	-0.006712932
135	0x3c54fc44	0.012999598
136	0x3d556dc9	0.052106652
137	0x3d340885	0.043953437
138	0xbcc42bf2	-0.023946736
139	0x3cc35e5e	0.023848709
140	0xbcf9d1ad	-0.030495489
141	0xbd53b694	-0.051687792
142	0x3cd69e12	0.02619842
143	0xbd201d51	-0.03909046
144	0xbb9cc770	-0.004784517
145	0xbd0a01d2	-0.033693142
146	0xbc1a5b0c	-0.009421121
147	0xbd3ada88	-0.045618564
148	0xbd5906e8	-0.052985102
149	0xbd12e21e	-0.035860173
150	0x3c0149d0	0.007891133
151	0x3ccf0ce2	0.025274698
152	0xbc85cf84	-0.016334303
153	0x3d38488b	0.044991057
154	0xbc908b00	-0.017644405
155	0x3d54bdc5	0.05193879
156	0x3d4b793b	0.04967616
157	0x3d439fff	0.047760006
158	0xbbf35260	-0.0074255913
159	0x3d2a5287	0.04158261
160	0xba20f300	-0.00061397254
161	0x3d527b79	0.051387284
162	0xbd04d531	-0.032429878
163	0xbcce54f7	-0.025186999
164	0xbd3ed52c	-0.046590015
165	0x3c7a565c	0.015279379
166	0x3d08d2a1	0.033403996
167	0x3d50aa05	0.050943393
168	0x3d0e847d	0.03479432
169	0x3cf9e5ae	0.030505028
170	0xbb560b40	-0.0032660514
171	0xbc9c474a	-0.019076962
172	0x3d56e979	0.05246875
173	0x3c1970bc	0.009365257
174	0x3c7fb4dc	0.015607085
175	0x3d350329	0.044192467
176	0xbd5291d5	-0.051408608
177	0xbba91028	-0.0051593967
178	0xbc8264d4	-0.01591722
179	0xbd412b6e	-0.04716056
180	0x3d276a9d	0.04087316
181	0x3cbb2f62	0.022849742
182	0x3b9ed970	0.004847698
183	0x3b54e4f0	0.003248509
184	0xbbe8b590	-0.007101722
185	0xbd0a2e6c	-0.033735678
186	0x3d0508ff	0.032479282
187	0xbccf6323	-0.025315827
188	0x3aabea20	0.0013116039
189	0x3d24d767	0.040244486
190	0xbc906c76	-0.017629843
191	0x3c83b652	0.016078148
192	0xbd50d026	-0.050979756
193	0x3b192010	0.0023365058
194	0xbc65b048	-0.0140190795
195	0xbd4625e0	-0.048375964
196	0xbb353e50	-0.002765555
197	0xbd4f97b0	-0.05068177
198	0x3bc73ff0	0.00608062
199	0xbd42f037	-0.047592368
200	0x3d3b3c33	0.045711707
201	0x3d44fed7	0.048094597
202	0x3c2a608c	0.010398995
203	0x3cd6d786	0.026225816
204	0x3c9173de	0.017755445
205	0x3c0d97f8	0.008642189
206	0x3cc346b2	0.023837421
207	0xbcbb2668	-0.022845462
208	0xbd010891	-0.03150231
209	0xbc60de64	-0.013724897
210	0xbceb6528	-0.028734758
211	0xbcbe7b59	-0.023252176
212	0x3ce071b6	0.027397972
213	0xbd5929a4	-0.053018227
214	0xbc3153e0	-0.01082322
215	0x3b6bd120	0.0035982803
216	0xbd42cba6	-0.047557496
217	0xbc9c9d04	-0.01911784
218	0xbcc14d33	-0.023596382
219	0x3bab2070	0.0052223727
220	0xbc9cfe1a	-0.019164134
221	0xbcb484d6	-0.022035997
222	0xbd0d344c	-0.034473702
223	0xbb18e610	-0.0023330487
224	0x3d5b0145	0.053468008
225	0x3d4ae481	0.049534325
226	0xbc8190fc	-0.015816204
227	0x3d045507	0.03230765
228	0xbc87b16e	-0.016564097
229	0xbd02fece	-0.031981282
230	0x3cbb118a	0.022835512
231	0xbba94928	-0.0051661916
232	0x3c3dc9b4	0.011583734
233	0x3cdaacae	0.026693668
234	0xbd1c2e84	-0.0381303
235	0xbc230570	-0.009950027
236	0x3cce3fda	0.025176931
237	0xbc2c3c00	-0.010512352
238	0xbd0bee79	-0.034162972
239	0x3d590f49	0.052993093
240	0xbc00a338	-0.007851414
241	0xbce9d7e4	-0.028545327
242	0xbd57df92	-0.052703448
243	0x3caefa52	0.021359596
244	0xbd124b9a	-0.03571663
245	0xbd28ef76	-0.041243993
246	0x3bbd7198	0.0057813637
247	0x3d323d2b	0.043515366
248	0xbc91770e	-0.017756965
249	0x3c992296	0.01869325
250	0xbcf845dc	-0.030306749
251	0x3c058008	0.008148201
252	0xbc1b9700	-0.00949645
253	0x3c0d034c	0.008606743
254	0x3bf6b3e0	0.007528767
255	0xbd3260e2	-0.043549426

fc1.bias f4 [64]
0	0x3cf72cde	0.030172762
1	0x39c81900	0.000381656
2	0x3d40c9ad	0.047067333
3	0x3d0324f3	0.03201766
4	0xbce424c1	-0.027849557
5	0x3c18f4e5	0.009335731
6	0xbd39bbeb	-0.04534523
7	0x3d0ae513	0.03390987
8	0xbcf4da3a	-0.029889215
9	0x3d064348	0.03277901
10	0xbd35d75d	-0.04439484
11	0xbc22ed75	-0.0099443095
12	0x3d266e53	0.040632557
13	0xbccf658c	-0.025316976
14	0x3caa3eaa	0.020781834
15	0x3c186374	0.009301055
16	0xbcaa3582	-0.020777468
17	0x3badaa70	0.0052998587
18	0xbb9ace65	-0.004724311
19	0x3ce6142e	0.028085794
20	0xbae335f0	-0.00173348
21	0x3d557ec1	0.052122835
22	0xbc2ccad6	-0.010546407
23	0xbc308324	-0.010773454
24	0x3ce012fc	0.027352802
25	0xbd43e4ed	-0.047825743
26	0x3c360782	0.011110188
27	0xba41be00	-0.0007390678
28	0x3c4e16e4	0.0125787
29	0x3c42221e	0.0118489545
30	0x3cb5cbec	0.022191964
31	0x3c77834c	0.015106987
32	0xbc3d6ec8	-0.011562057
33	0xbd1f79fa	-0.038934685
34	0xbccbf1f3	-0.024895644
35	0xbbca2505	-0.006168964
36	0x3d5b2f2d	0.053511787
37	0x3c41f5b4	0.011838365
38	0x39c7b780	0.00038092956
39	0x3c611432	0.013737725
40	0x3d73734c	0.059436128
41	0x3d2c1a7e	0.042017452
42	0xbd1adf7c	-0.037810788
43	0x3cc20a9b	0.023686698
44	0xbc9fba27	-0.019497944
45	0x3d3b67dd	0.04575335
46	0xbd215195	-0.039384443
47	0x3cf18308	0.029481426
48	0xbb380000	-0.0028076172
49	0xbc6578d6	-0.01400586
50	0xbc257288	-0.010098107
51	0x3d25d5f5	0.04048725
52	0x3cc9bae2	0.024625245
53	0x3ce00ec6	0.027350795
54	0xbd4d6ada	-0.05015073
55	0xbce568f7	-0.028004153
56	0xbce49d5d	-0.027907068
57	0x3b6def5b	0.0036305997
58	0x3d00590d	0.031334925
59	0xbbe8e150	-0.0071069375
60	0xbc9f07ea	-0.019412953
61	0xbaf7e860	-0.0018913858
62	0x3d1fa06d	0.038971353
63	0xbb813a20	-0.0039436966

fc2.weight f4 [32, 64]
0	0xbd0c6498	-0.03427562
1	0xbda91894	-0.08256641
2	0x3b9773a0	0.004621938
3	0xbd8cc99c	-0.068743914
4	0xbc74169a	-0.014897967
5	0x3ca8f929	0.020626621
6	0xbdef5ac6	-0.116872355
7	0x3d110165	0.03540172
8	0xbdc6e339	-0.09711308
9	0x3a5fc521	0.00085361494
10	0x3de9f302	0.11423303
11	0xbd85abfb	-0.06526943
12	0x3dc80968	0.09767419
13	0xbd798809	-0.06092075
14	0x3d14176c	0.03615515
15	0xbde981b4	-0.11401692
16	0xbcee27c8	-0.029071704
17	0xbce18a00	-0.027531624
18	0xbd989042	-0.0744939
19	0x3da25654	0.07926622
20	0xbd5e0145	-0.05420043
21	0x3c350dc0	0.011050642
22	0xbd607d9a	-0.054807283
23	0x3da7ee42	0.08199741
24	0x3dc2abe1	0.095054395
25	0x3c4ad303	0.012379411
26	0x3e018e01	0.12651826
27	0xbdef2a0a	-0.1167794
28	0x3d84da22	0.06486918
29	0x3cf7a65b	0.030230692
30	0xbbf61059	-0.007509273
31	0xbd7d35a4	-0.061818734
32	0x3c385501	0.011250735
33	0xbded32de	-0.11581968
34	0x3da14576	0.07874577
35	0xbc41edb2	-0.011836456
36	0xbd2140fc	-0.039368615
37	0x3d911737	0.07084506
38	0xbc20c800	-0.009813309
39	0x3d6d2a8d	0.057901908
40	0x3e09b83a	0.13449183
41	0xbc41e6fb	-0.011834855
42	0x3db4e922	0.08833529
43	0x3d9f5080	0.07779026
44	0x3c884f5a	0.0166394
45	0x3c91838a	0.017762918
46	0x3dfc3a35	0.123157896
47	0x3d85f96d	0.06541715
48	0xbb00c794	-0.0019650208
49	0x3cdc9d20	0.026930392
50	0xbdf340da	-0.11877604
51	0xbd04b6a8	-0.032400757
52	0x3d9469e8	0.072467625
53	0x3d575734	0.052573398
54	0xbc85313f	-0.016258834
55	0x3c3391d5	0.010960062
56	0x3ceb3978	0.028713927
57	0xbc7eb10e	-0.015545143
58	0xbd810bf3	-0.06301107
59	0xbc26c130	-0.010177895
60	0x3cda8c00	0.026678085
61	0x3dde7016	0.108612224
62	0xbd00fa24	-0.031488553
63	0x3bf12220	0.0073588043
64	0x3d8a9452	0.06766571
65	0xbdcd0d62	-0.10012318
66	0x3dec4046	0.11535697
67	0x3ddcc356	0.10779445
68	0xbd2df700	-0.042471886
69	0xbd97a960	-0.074053526
70	0x3d8f505c	0.06997749
71	0x3d88dafa	0.066823915
72	0x3d675f90	0.05648762
73	0xbdc807b8	-0.09767097
74	0x3db71a2e	0.0894054
75	0xbdfa95c0	-0.12235594
76	0xbd1e5ae8	-0.038660914
77	0x3dd30f9a	0.1030571
78	0x3d874554	0.0660502
79	0x3dfadaec	0.12248787
80	0x3dfa0596	0.12208097
81	0xbce99508	-0.028513446
82	0x3d400cf0	0.04688734
83	0x3b8b95c0	0.004259795
84	0xbc821818	-0.01588063
85	0xbdd86478	-0.10566038
86	0xbda32308	-0.07965666
87	0x3bbba960	0.005726978
88	0x3aa96000	0.0012922287
89	0xbdb42e84	-0.08797935
90	0xbdd18f90	-0.102324605
91	0xb9efaa00	-0.00045712292
92	0xbd5a4b94	-0.053294733
93	0xbdc890fa	-0.09793277
94	0xbdd91dca	-0.10601385
95	0x3d9a0cc2	0.075219646
96	0xbd42ff6c	-0.04760687
97	0x3d808872	0.06276025
98	0xbdae90b0	-0.08523691
99	0x3d5c6698	0.05380878
100	0x3dab7326	0.08371572
101	0xbdb4b7ee	-0.08824144
102	0x3dc4b2c4	0.09604409
103	0xbc304880	-0.010759473
104	0x3bc90040	0.006134063
105	0x3dba0ff8	0.09085077
106	0x3b800dc0	0.003907889
107	0x3d4a8824	0.04944624
108	0x3dcdd1f0	0.10049808
109	0xbdf37844	-0.11888173
110	0xbced0cc0	-0.028936744
111	0x3ba03a60	0.0048897713
112	0xbd892b98	-0.06697768
113	0xbdc5d7fa	-0.09660335
114	0xbd7eba28	-0.06218925
115	0x3bc25420	0.0059304386
116	0x3ce2daa0	0.02769214
117	0xbdb34f18	-0.0875532
118	0x3d436254	0.047701195
119	0xbdd953be	-0.10611676
120	0x3d6626b0	0.05618924
121	0x3dd8dacc	0.10588607
122	0x3df40da8	0.11916667
123	0xbd876bd8	-0.066123664
124	0xbd169ee4	-0.036772624
125	0xbc64cfd0	-0.013965562
126	0x3dcd4b68	0.10024148
127	0x3d97d91c	0.07414457
128	0x3dcac83e	0.099014744
129	0x3d62a7f8	0.05533597
130	0x3da7cde0	0.081935644
131	0x3d239898	0.039940447
132	0x3da576fc	0.08079335
133	0x3de254e0	0.11051345
134	0xbdaf506e	-0.085602626
135	0x3d959d37	0.07305377
136	0x3d50874f	0.05091029
137	0x3da4b8a4	0.0804303
138	0x3c9dc2cd	0.019257927
139	0x3d65c1a1	0.056092862
140	0x3deb4ed4	0.11489645
141	0x3d8b2e32	0.067959204
142	0xbd827176	-0.06369297
143	0xbdb07d52	-0.08617653
144	0x3cb19140	0.021675706
145	0x3d96f736	0.073713705
146	0x3df8ee27	0.12154799
147	0xbd06927c	-0.032854542
148	0x3d3899de	0.045068614
149	0x3b7b3280	0.003832966
150	0x3df5cbe4	0.1200178
151	0xbd4875d4	-0.048940495
152	0xbd1f7241	-0.03892732
153	0x3d662a02	0.056192406
154	0xbe0c0f73	-0.13677768
155	0xbdc1239e	-0.094306216
156	0x3c5b40e0	0.013382167
157	0xbd8d4442	-0.06897785
158	0x3ccec8a1	0.025242152
159	0xbd934e56	-0.07192676
160	0xbdd1b673	-0.102398776
161	0x3d179b54	0.037013367
162	0x3cfad98b	0.03062131
163	0xbd91f4c6	-0.07126765
164	0xbd0df4fc	-0.034657463
165	0x3dd8050a	0.10547836
166	0xbd9fb83a	-0.0779881
167	0x3d068996	0.032846056
168	0xbe57d8ef	-0.21078847
169	0xbd0317ce	-0.032005124
170	0x3d8a8a3a	0.06764646
171	0xbdba92e2	-0.09110047
172	0x3dff53b8	0.1246714
173	0xbdf27258	-0.118382156
174	0xbe0b9f15	-0.13634904
175	0xbd6c67d9	-0.057716224
176	0x3cfb5451	0.030679854
177	0x3d934c88	0.071923316
178	0xbaf39600	-0.0018584132
179	0xbd8b3e44	-0.067989856
180	0x3c277500	0.010220766
181	0xbdf8b228	-0.121433556
182	0x3b970b7f	0.0046095247
183	0xbd896da8	-0.067103684
184	0x3d2e182c	0.04250352
185	0x3cd0fa3e	0.02550995
186	0xbd169d70	-0.036771238
187	0x3d4f5320	0.050616384
188	0x3d39affc	0.045333847
189	0x3dbfa1a6	0.09357004
190	0xbd667d98	-0.05627212
191	0x3df9b2fa	0.1219234
192	0xbdfb0cae	-0.12258278
193	0x3d918c5a	0.07106848
194	0xbdae2a0e	-0.08504115
195	0xbd5650b4	-0.05232306
196	0xbd15026c	-0.036379263
197	0x3dcb08da	0.09913798
198	0xbd465aec	-0.048426554
199	0xbde1faaa	-0.110341385
200	0xbd515c91	-0.05111367
201	0x3da42fc0	0.0801692
202	0xbd69e281	-0.057100777
203	0x3cd9b18e	0.026573922
204	0xbdc83d80	-0.09777355
205	0xbdcd79dc	-0.100330085
206	0x3d04b948	0.03240326
207	0x3d742350	0.05960399
208	0xbb42aa40	-0.0029703528
209	0xbda3cf66	-0.079985425
210	0x3cb07734	0.021541215
211	0x3dd4eeae	0.10397087
212	0x3c53266b	0.0128875775
213	0xbcb6b500	-0.022303104
214	0x3d39ed1f	0.045392152
215	0xbcc683e8	-0.02423282
216	0x3dceb514	0.10093132
217	0xbdbf7b91	-0.0934974
218	0xbd4bad55	-0.04972585
219	0x3dda809a	0.1066906
220	0xbdd81cac	-0.10552344
221	0x3bd8e239	0.0066187647
222	0xbddec688	-0.108777106
223	0x3d1672c8	0.036730558
224	0x3d6ca26c	0.057772085
225	0x3d5d254c	0.053990647
226	0x3ce9dcdf	0.028547702
227	0xbbc17599	-0.0059039113
228	0xbd77d4a4	-0.060505524
229	0xbdd776ec	-0.105207294
230	0xbddc3268	-0.10751802
231	0x3d31b8fc	0.043389305
232	0xbd5af0d2	-0.05345232
233	0xbddf0ef2	-0.108915225
234	0x3d268a08	0.04065898
235	0xbd895b0a	-0.067068174
236	0xbd9eadb8	-0.07747978
237	0x3c4d67a0	0.012536913
238	0x3db18f12	0.086698666
239	0xbd280b84	-0.041026607
240	0xbd7dba18	-0.06194505
241	0xbdbbf6b8	-0.09177917
242	0xbd7b4248	-0.061342508
243	0xbd5fc244	-0.054628626
244	0xbdb3be14	-0.08776489
245	0x3cbed2e8	0.023293927
246	0x3dea9338	0.11453861
247	0x3da8cd56	0.0824229
248	0x3be03900	0.0068427324
249	0xbc746ffa	-0.014919275
250	0x3d266fb0	0.040633857
251	0xbcf02528	-0.029314592
252	0x3dd8f312	0.10593237
253	0xbdb04e2e	-0.086086616
254	0x3d7e344c	0.062061593
255	0x3c49c910	0.012316003

fc2.bias f4 [32]
0	0xbd5d00fb	-0.053956013
1	0x3d85f824	0.0654147
2	0x3d864118	0.065553844
3	0x3c4ab12d	0.012371344
4	0xbc826f37	-0.015922172
5	0x3b96754f	0.004591621
6	0x3dc6dc92	0.09710039
7	0xbdbd1888	-0.092331946
8	0xbdda4ede	-0.10659574
9	0x3cb505a5	0.022097418
10	0x3d5aec74	0.053448156
11	0xbce7c8a0	-0.028293908
12	0xbcbb5cd6	-0.022871416
13	0x3d2c29a8	0.042031914
14	0x3bc698c8	0.0060606934
15	0xbd4beefc	-0.04978846
16	0xbbced731	-0.006312274
17	0x3ddd1a92	0.107960835
18	0xbda00802	-0.07814027
19	0x3d3bea99	0.045878027
20	0x3d62b292	0.05534608
21	0xbdb2ce90	-0.08730805
22	0xbced33e0	-0.0289554
23	0x3de5627e	0.112004265
24	0xbd3da42c	-0.046299145
25	0x3df3fa7c	0.119130105
26	0x3dee1c51	0.11626495
27	0xbc350760	-0.011049122
28	0x3a05f700	0.0005110353
29	0xbd81af64	-0.06332281
30	0x3d2179f0	0.03942293
31	0xbd9fb895	-0.07798878

fc3.weight f4 [1, 32]
0	0x3dad9149	0.084749766
1	0xbe1357e7	-0.14389001
2	0xbdf9ce10	-0.121975064
3	0xbcfb945d	-0.030710394
4	0xbe16ac0c	-0.14714068
5	0xbe07c465	-0.13258512
6	0xbe2a9901	-0.16659929
7	0x3da07d0e	0.07836352
8	0x3d478f4f	0.048720654
9	0x3dddf8a1	0.10838438
10	0x3e22de27	0.15905057
11	0x3dcadd0e	0.09905444
12	0xbe3e6dbe	-0.18596551
13	0xbe327924	-0.17429024
14	0xbe2a3293	-0.16620855
15	0x3e084da5	0.13310869
16	0xbdf04111	-0.117311604
17	0xbdf04e4a	-0.117336825
18	0x3a5b5c00	0.0008367896
19	0x3db8978d	0.09013281
20	0x3b3c76e8	0.0028757397
21	0xbdee3667	-0.1163147
22	0xbd9994ab	-0.07499059
23	0x3e40752b	0.18794696
24	0x3d982cba	0.07430406
25	0x3e3729f2	0.17887095
26	0xbd042c27	-0.03226867
27	0x3d96396a	0.073351696
28	0xbe2e225f	-0.17005299
29	0xbe299990	-0.16562486
30	0x3e2ac8e9	0.16678204
31	0x3df50407	0.11963659
