back-end/public/Script/model.pth (torch, 99335 bytes, 5 tensors)

fc1.weight f4 [64, 347]
00000000: 4721 9f3b 2b8c debc 9f40 b23d 28cf a4bd
00000010: efd3 6a3d 34e8 2cbd 7d6f 053d a40c e63d
00000020: ab27 743e 39c5 32bd fb63 9dbd 3ccd 933e
00000030: c376 aabd a2fa 30be e037 133d 3966 68bd
00000040: efff 8b3b 413a f0bd 44f8 3abe a7d6 97be
00000050: fad0 c53d 076a 5c3d ecc4 bbbe a135 b9bc
00000060: 434f 33be 5836 b6bc c02b ae3d e07a 92bd
00000070: 20cd 26be cd62 f73d 2976 4fbe 5269 b3bd
00000080: cc3f 5a3e 9d8c 893c 3866 753c 49ff b53d
00000090: 383d c83d b1c7 203e b468 273a 8be2 4bbd
000000a0: 1966 e63c 2dd7 a83d fe91 97bc 6450 66bc
000000b0: 306e a6bc 8672 1e3e 8813 24bd d1bf e63b
000000c0: 4e47 403e 4ea2 00bd 6220 ddbd 5b52 843d
000000d0: babf b93d cc47 26be 6b22 2cbe 6908 0fbe
000000e0: ac39 863e 9b57 c4bd 88c5 8f3e 01d1 f2bb
000000f0: 0ccd 58bd 0b7c 603d 2e99 cbbd 2747 b4bc
00000100: bde0 933c 849a 2bbe 70d5 f73d f455 683d
00000110: d3a2 08be d16b e4bd 8e26 9dbd 60c0 a3bd
00000120: dc81 f939 fba4 80be d562 ea3d faf7 9bbd
00000130: e5fd fdbb 9aef 853d aaa0 60bd 3c22 ca3d
00000140: 22a9 9cbd 2bc1 ffbc 001f b33d 506e fcbd
00000150: d115 1c3e d015 2ebd 55ef 15be 1f7f 9bbc
00000160: d70c 8d3d fe27 96bd 94b7 41be a1bd bc3d
00000170: 0e1a e3bd 37e8 cf3d 1d82 ed3d 979a 913d
00000180: 5625 8fbc a513 06be b703 7c3d 4056 2fbe
00000190: bc6d 38be 2ec2 c0bb b442 3b3e 5999 9abd
000001a0: e90f d3bd 9bce 143d 1d3f b83c 1fb5 b8bd
000001b0: fca5 933d e09f 3d3e 28cd a63e 15c6 f93d
000001c0: 871b b53d 6574 86bb 92ca aebd 44d1 60bd
000001d0: 48f7 0f3e 1631 13bd 19aa efbd 9d67 dcbc
000001e0: 9ad1 e8bc 6c23 92bd 8768 a63d 1647 b6bd
000001f0: bf97 dd3d 7cfc 303d 1765 4fbc d3d5 bc3d
00000200: 7c79 503e 58aa 4abe 5681 fdbd 703c a4bd
00000210: 7557 cfbd c303 c83d 8243 c83d d58f 203e
00000220: b389 923d 1b2a e7bd c83c b63d 6596 1d3e
00000230: 73f4 afbc 3e1d 0abc 1b71 fcbc ed01 223c
00000240: 1325 483b 3769 173e b8a8 babd 1c76 413d
00000250: d4ed 2e3c adf5 07be 997c ab3d e035 323e
00000260: f2a9 e03c 2885 013e 3aab 21bd fc6f 94bd
00000270: 2a1d 2a3c e316 c93c fea5 4f3c ee30 0d3e
00000280: 6646 9e3d 211c 5a3c 6097 55be f985 8cbd
00000290: 1b5c ddbd 414e f7bd 1e0b 813e 59bd d8bb
000002a0: e355 873c 7fb1 a63d b0f9 6cbd c494 3bbd
000002b0: 590d 0bbc dcde eabb af65 bfbd 842d 403d
000002c0: 1ee6 30bd 29ac 6b3d 7103 76be 6236 a93d
000002d0: 81e8 c9bd 39bd 033e 4e2d 46be 9fcf dd3d
000002e0: a822 ef3d c5b9 323b ac14 6f3e ccf1 cabc
000002f0: 5670 053e d6b4 f83d 9918 49bd 7b89 b0bd
00000300: 6077 b0bc 089c 1d3e c53e a93c ea90 14be
00000310: 2384 483d 74be 06be dac2 45be 7115 1c3d
00000320: cdc7 febb 8e86 c73d 1f93 40be 37fb a5bc
00000330: 4016 fd3d bafd ecbd 0c39 25bd e2fe e43c
00000340: e757 c0bd d079 a2bb 7f94 f63d 176d 233d
00000350: d85e 89bc 807d 54bc 3517 5d3c de70 cc3c
00000360: eab9 38bd c71c 183d e7ad f0bd 5842 243e
00000370: 7539 d3be 196d ccbd 66c8 b33c ffa7 3bbd
00000380: 02ca a73c 1916 0e3e a5af 92bd ee56 3d3d
00000390: dcd5 bfbd e590 8f3d df4c 143d 1f19 5cbd
000003a0: f952 cf3d 01c8 c23c 2241 d6bc a599 f13d
000003b0: c51d debc c72f 5c3e 5fd8 243e 3cad 8c3d
000003c0: 5b81 58bd c5ab 8c3d 1e33 1ebe 38f6 70bd
000003d0: 5539 823e 4ef2 35be 8065 58bd 5b80 403d
000003e0: 3d8c ac3d 6428 e3bd 7386 f33d b466 7bbe
000003f0: 99fa d8bd 30da 48be f1e2 b2bd a07f 19be
0.004856262 -0.027166447 0.08703732 -0.080473244 0.057331022 -0.042213634 0.032577027 0.1123288
0.23843257 -0.043645117 -0.076850854 0.2886752 -0.08323433 -0.17283109 0.03594196 -0.056738112
0.004272453 -0.11729861 -0.18258768 -0.29655954 0.09659 0.053812053 -0.36673677 -0.02260858
-0.17510705 -0.02224271 0.085044384 -0.07152343 -0.16289186 0.12079392 -0.20259918 -0.08760323
0.21313399 0.016790682 0.014977984 0.088865824 0.097773015 0.15701176 0.00063861464 -0.049776595
0.028124856 0.082441665 -0.018502232 -0.014057253 -0.020316213 0.15473375 -0.04005769 0.0070419093
0.187772 -0.031404786 -0.10797192 0.064610206 0.09069772 -0.16238326 -0.16810004 -0.13968052
0.26215875 -0.09587022 0.28080392 -0.007410169 -0.052929923 0.054805797 -0.09941326 -0.022006584
0.0180515 -0.16758162 0.12101257 0.056722596 -0.13343363 -0.11153377 -0.07673369 -0.07995677
0.00047589734 -0.2512587 0.11444632 -0.07615657 -0.007751214 0.06539841 -0.05484072 0.09869811
-0.07649447 -0.03122004 0.08746147 -0.12325728 0.15242697 -0.04250127 -0.14642079 -0.018981514
0.06887215 -0.07331847 -0.18917686 0.09215856 -0.11088954 0.10151713 0.11597083 0.07109564
-0.017473858 -0.13093431 0.06152698 -0.17122746 -0.1801061 -0.005882523 0.18287164 -0.0754878
-0.10305769 0.036329847 0.022491032 -0.09018921 0.072093934 0.18518019 0.32578397 0.12195984
0.08843141 -0.004103231 -0.08534731 -0.05488707 0.14059174 -0.035935484 -0.117023654 -0.026904875
-0.028420258 -0.071356624 0.08125406 -0.08900277 0.10819959 0.043209538 -0.012658379 0.09220471
0.20358843 -0.19791543 -0.123781845 -0.0801934 -0.10124103 0.097663425 0.09778501 0.15679868
0.0715517 -0.11287328 0.08898312 0.15389402 -0.021478867 -0.008429823 -0.030815652 0.009888154
0.0030539676 0.1478623 -0.09114212 0.04723178 0.01067682 -0.13277312 0.083733745 0.17403364
0.027424786 0.12648451 -0.039469935 -0.07247922 0.01038293 0.024547046 0.012673853 0.13788196
0.07728271 0.0133123705 -0.20858526 -0.06861491 -0.10808583 -0.120754726 0.25203794 -0.006614369
0.016520446 0.081393234 -0.057855308 -0.04579617 -0.008487069 -0.00716768 -0.093455665 0.046918407
-0.043188207 0.05753723 -0.2402475 0.08262326 -0.098588 0.12865151 -0.1935322 0.10830616
0.11676532 0.0027271372 0.2334773 -0.0247735 0.13031134 0.12143867 -0.049095724 -0.08619972
-0.021541297 0.15391552 0.020659814 -0.14508405 0.04895414 -0.1315859 -0.19312611 0.038106386
-0.007775283 0.09742461 -0.18806122 -0.02026139 0.123577595 -0.11571832 -0.040337607 0.027953569
-0.09391766 -0.004958369 0.12040042 0.039898958 -0.016768858 -0.012969375 0.0134943025 0.024956163
-0.045099176 0.03713682 -0.11751919 0.16040933 -0.41254774 -0.09981746 0.021946143 -0.04581451
0.020482067 0.13875617 -0.07162408 0.04622548 -0.09366962 0.07010058 0.036206122 -0.053734895
0.10123248 0.02377701 -0.026154105 0.117968835 -0.027113805 0.215026 0.16098164 0.06868979
-0.052857738 0.068687 -0.15449187 -0.058828562 0.25434366 -0.17768213 -0.052831173 0.04699741
0.08425186 -0.11091688 0.118908785 -0.24550897 -0.10594673 -0.19614482 -0.08734692 -0.14990091

fc1.bias f4 [64]
00000000: 3bf1 2abd 9c66 8b3c 68ec 75bc 9929 05bd
00000010: f74e 82bc 8080 0e3d 9330 8c3d 2dab ca3b
00000020: f8d2 6bbc 74d6 2ebd b865 55bc 85f8 c8bc
00000030: 3032 d4bb 7816 9c3b 8df5 583d 399c 12bd
00000040: 4bd7 14bd b972 9ebd f435 2abd 3081 c23c
00000050: be0a a73c 04de 033d fff0 a2bc 70f3 7a3d
00000060: ca58 56bd 2ed8 2bbd b24b 4c3d 9a53 13bd
00000070: 5c37 253c d0b8 80bb 7873 9ebb f837 f9bb
00000080: 5444 92bc 3003 00bc 5087 70bb 7edb 093d
00000090: 827f 023d 636c dd3c fd0a e33c 3d2a 2d3d
000000a0: 4c04 76bc 87da 35bd ae1b a43d 2248 563d
000000b0: 782d 783b 92f0 3d3d 50b8 05bd 4ae3 0ebd
000000c0: c042 863b 300b e83c 4f6d 26bd 0aaf 4d3d
000000d0: 887f c5bc 3095 5abd e296 e43c 20d4 98bc
000000e0: f2a0 f93b a450 7fbc 8b02 2fbd b246 243d
000000f0: 60f7 d73c e173 babc 0c48 bc3c caf8 523d
-0.04173396 0.017016701 -0.015009977 -0.032510374 -0.015906794 0.034790516 0.06845202 0.0061849565
-0.014393561 -0.042684987 -0.01302474 -0.024532566 -0.0064757094 0.0047634207 0.05296855 -0.035793517
-0.036338132 -0.07736725 -0.04155536 0.023743242 0.020390864 0.032194152 -0.019890307 0.061267316
-0.05233077 -0.041954212 0.049876876 -0.0359684 0.0100839995 -0.0039282814 -0.0048355423 -0.007605549
-0.017854847 -0.00781326 -0.0036701746 0.03365659 0.031859882 0.027029222 0.0277152 0.04227661
-0.015015673 -0.044397857 0.08013092 0.052314885 0.0037868898 0.046372004 -0.032646477 -0.03488473
0.0040973127 0.028325647 -0.04063159 0.05021576 -0.024108663 -0.053364933 0.027903978 -0.018655837
0.007618063 -0.015583191 -0.042727035 0.040106483 0.026363075 -0.022760333 0.022983573 0.051506795

fc2.weight f4 [32, 64]
00000000: 5e90 b8bd fa3c 913d d803 bcbc e826 94bd
00000010: 7709 223d 4441 bf3d 7d2e 893e 6ef1 da3d
00000020: 3026 2dbc 0072 833b 02b5 843d 20fd 92bd
00000030: c02b 8d3d fe7a e1bd 729a 153d ecb0 33bd
00000040: 572e 7c3c 2bf7 e1bc 3de7 61bd 4012 f6bb
00000050: 4f61 bdbd 24db c23d e9a5 223d 9f95 c03d
00000060: 041f 9e3d 8ab8 e1bd a5a2 b93d 777c 0ebe
00000070: 54d5 02be bc06 16bd f00c 553d 1ecd e9bd
00000080: 27df b93c b02a 95bd a3b7 ab3d 0428 14be
00000090: cf6a b43d e32d 193e 3db0 b93d 5c8c b43d
000000a0: 3809 a8bc ce75 833d 686f 943e 2031 c73c
000000b0: 052b c3bd e05d 49bc a80d 123d 8706 c73d
000000c0: 2830 fdbd 9447 f03d 982e 603d 50b4 f8bc
000000d0: 2666 893d 2017 6abd 1c86 c0bd 30a6 8abc
000000e0: a218 ba3d 1857 e5bc e863 27be 5843 d03c
000000f0: 0192 5fbd 446a 02bd 786c 85bd 40eb 513c
00000100: d94c d7bd e617 fc3d 4236 b03d f8e3 f73c
00000110: 55ba 44bd a89b ebbd ddf0 843e b6c1 ab3d
00000120: d0ee c0bd e22b 843d 5246 c73d 5052 523d
00000130: 4c5d 013d 5468 d33d 2615 973d 8227 c4bd
00000140: 9fe5 0b3e af4c 9ebd 24ed a83d 7c87 493d
00000150: b04b d1bd ec3c c93d 8932 2ebd bdb5 183e
00000160: 3d24 cdbd d0cc 8c3d d45e f83d 3170 283d
00000170: d3bb 2e3c 4655 be3d b47a 86bd 4666 b9bd
00000180: b03f f1bd e4be 53bd d4ba 053d 55d6 59bd
00000190: fda2 193d 2705 dcbc 0a42 003c 8df6 713d
000001a0: dae0 a4bd c024 183b fed9 723e 2027 be3d
000001b0: 00cc b03d b6a6 bb3d 79fa bf3d 89c3 5bbd
000001c0: d01e 413c 9fc6 af3c c29b 9cbd e01b c33d
000001d0: 0e3d d0bd 81be d9bd eb37 ef3d a032 5b3d
000001e0: 9d24 ba3d 304b a6bc 45d1 2cbc b881 61bd
000001f0: 9b64 a43d 2e17 f33d 40b5 253c 6618 80bd
00000200: 3411 c1bd 34cc 38bd 028a ccbd 08b2 db3c
00000210: 6a21 2dbd 8e59 883d 20d4 d53d 6c27 c8bc
00000220: 9419 a5bd 704c 2b3c f87b a6bc 084e 90bc
00000230: 5479 90bd 76a2 ca3d 006e 203d c604 fc3d
00000240: 451d cd3d aa58 50bd 8e00 06be 603a dabc
00000250: 9535 0bbe 40c2 ee3c 0094 8f3b fd3f d4bc
00000260: 2fd4 8e3d c833 b2bc 1b79 25bd 171f 7fbd
00000270: 165a 3c3d 12e0 aabd f8cf a93d 7064 e63c
00000280: 58fc a83d 90aa 5abd 9cbf 333d acb6 00bd
00000290: 6f70 6f3b 15ff df3d 3897 6f3c b62e 4abd
000002a0: 6a0f 8bbd 7e0c e8bd cae5 fe3c c0f0 4bbb
000002b0: 0f4d 0bbe 1e5c 8b3d aa2b a6bd 47c0 fdbd
000002c0: 8ed9 933d 0448 b73d cc24 433d 0cd0 dc3d
000002d0: f8e7 babc 0499 d9bd d96c ce3d c00b 91bb
000002e0: 7e9b ac3c 3eaf 83bd cd39 3cbd be8d c83d
000002f0: 3adf a73d b94e ecbd 1804 88bc a406 bdbd
00000300: d590 a03d be6b 83bd e20c d7bd 50a9 7dbd
00000310: e954 08bd bad1 f7bd 1ece 063e bdac e6bd
00000320: 3ad3 e13d 8c11 edbd 94f9 673d 4cc4 41bd
00000330: 20f6 31bd 38a7 bfbd d7cd ec3d fc67 d2bd
00000340: 5923 cf3d cf04 83bb 812d 5dbd 84a5 39bd
00000350: 2909 ad3d 50c3 36bc 5a51 923d 72d2 f63d
00000360: 863f 643c 5c86 07bd 9eda dabb 027f 0cbe
00000370: b091 cdbc 185f 1bbd 6024 3cbd de25 8c3d
00000380: 3f91 d53d 3866 ecbc 20fa d5bc c75c 803d
00000390: 0091 9dbd 3ae0 a83c ad56 5c3d 38fc b7bd
000003a0: 76fc 813d 46bb e13d 0c87 d1bc 608f 1a3d
000003b0: 50f2 29bb 8040 233c 57a3 f7bc 26ad e83d
000003c0: 5cb0 613d 86b5 ebbc c80e e9bc 802b c93c
000003d0: 0276 a63d ac72 ba3d 4f7c a5bc 342d 9e3d
000003e0: d77a e3bd 501f eabd 4c62 533d b88f 833c
000003f0: 7b91 5cbd 6ed9 a93d e864 a9bc b61a 843d
-0.09011911 0.070917085 -0.022951052 -0.07233983 0.039559808 0.0933862 0.2679328 0.1069058
-0.010568187 0.0040113926 0.06479837 -0.07177186 0.0689311 -0.11009787 0.036524244 -0.043869898
0.015391908 -0.02758368 -0.055152167 -0.0075095 -0.09247076 0.09514454 0.039709006 0.09403538
0.077207595 -0.11021526 0.09064225 -0.13914667 -0.1277669 -0.036627516 0.05201429 -0.11416076
0.022689415 -0.072835326 0.08384635 -0.1446839 0.088094346 0.1495891 0.09066818 0.08815834
-0.020512208 0.06418954 0.28991246 0.024315417 -0.0952969 -0.012290448 0.035657555 0.09718042
-0.12362701 0.117324024 0.054731935 -0.030359417 0.067089364 -0.05715096 -0.09400579 -0.016924948
0.090867296 -0.027995631 -0.16346705 0.025422737 -0.0545826 -0.031839624 -0.065148294 0.012812436
-0.105127044 0.12309246 0.08604099 0.030260071 -0.048029263 -0.115042984 0.25965014 0.08386557
-0.0942055 0.064536825 0.097302094 0.05134803 0.031583115 0.103226334 0.073770806 -0.09577848
0.13661812 -0.0772947 0.08248356 0.049201474 -0.10219514 0.09826073 -0.042528663 0.14913078
-0.100166775 0.068750024 0.12127462 0.04112262 0.010664898 0.09293608 -0.065663725 -0.0905271
-0.117797256 -0.05169572 0.032648876 -0.05318292 0.037508953 -0.026857926 0.007828245 0.05907302
-0.080506995 0.0023215264 0.2371597 0.09284806 0.0863266 0.09162657 0.09373946 -0.053653274
0.011787131 0.021457015 -0.07646896 0.09526801 -0.10167895 -0.10632039 0.116805874 0.053515077
0.09089015 -0.020299524 -0.010547941 -0.05505535 0.080270015 0.118696555 0.010114014 -0.06254654
-0.09427109 -0.04511662 -0.099872604 0.02681829 -0.042268194 0.06657706 0.1044085 -0.02443286
-0.08061519 0.010455236 -0.020322785 -0.017615333 -0.070543915 0.09894268 0.039167404 0.12305598
0.10015348 -0.050865807 -0.13086149 -0.026639163 -0.13594659 0.02914536 0.0043816566 -0.025909418
0.069740646 -0.021753207 -0.0403987 -0.06228551 0.04598435 -0.08343519 0.0829162 0.028124064
0.08251256 -0.053385317 0.043883905 -0.03142421 0.0036535522 0.10937325 0.014623456 -0.049360953
-0.067900494 -0.11330508 0.031115431 -0.003111884 -0.13603614 0.06804679 -0.08113797 -0.123901896
0.0721923 0.08949283 0.047642514 0.10781869 -0.02281569 -0.106248885 0.10079355 -0.0044264495
0.021070238 -0.06429909 -0.04595356 0.0979266 0.08196874 -0.11538453 -0.016603515 -0.09229782
0.078401245 -0.064170346 -0.10500504 -0.061929047 -0.0332841 -0.12100549 0.13164565 -0.11263416
0.110266164 -0.115756124 0.0566345 -0.047306344 -0.043447614 -0.09358066 0.11562698 -0.1027374
0.10114164 -0.003998376 -0.053998474 -0.045323864 0.08449013 -0.011154965 0.07144423 0.12051858
0.013931161 -0.03308712 -0.006678893 -0.13720325 -0.025093883 -0.037932485 -0.045933127 0.0684316
0.10428094 -0.028857335 -0.026120245 0.06267696 -0.07693672 0.020614732 0.053793598 -0.08983654
0.06346981 0.11022048 -0.02557709 0.03773439 -0.0025931783 0.0099641085 -0.030229254 0.113611504
0.05509983 -0.02877308 -0.028449431 0.024556875 0.08127977 0.09103903 -0.020200877 0.077234656
-0.11107414 -0.11431754 0.051607415 0.016059741 -0.05384968 0.082934245 -0.020677999 0.06450407

fc2.bias f4 [32]
00000000: 44a5 7f3d b744 d43d 7863 d73b 7fb5 b33d
00000010: 4565 d3bc d222 fd3d e413 2bbd 0eea af3d
00000020: 5a51 5abc a8c3 2e3d 9abc f9bd b0ce 393d
00000030: 6c9a f7bd f25e ecbd 58db 65bd 08fd 863c
00000040: e491 0ebd 359a 913d aa9e 883d 3884 5d3d
00000050: e681 aa3d 090d edbd 105d 0fbc f8df 03bd
00000060: a0fe c4bd 584a fabc f828 c6bd 5264 0d3c
00000070: 87a8 a43d 8452 a4bd 708c b8bc ff4c ea3c
0.06241347 0.10364669 0.006573137 0.08774852 -0.025805125 0.12360157 -0.041767016 0.08589564
-0.01332506 0.04266706 -0.12194176 0.04536313 -0.120900005 -0.11541547 -0.056117386 0.016478077
-0.0348071 0.07109491 0.06670888 0.05408117 0.083255574 -0.11574752 -0.008750215 -0.032196015
-0.09618878 -0.030553028 -0.09675783 0.008629875 0.080399565 -0.08023551 -0.022527903 0.028601168

fc3.weight f4 [1, 32]
00000000: a019 6abe 827c 09be 71cb 0c3e 3498 5bbb
00000010: 8412 e3bd d5e3 f6bd 30ca ee3c 6cff a1bd
00000020: c2bc a2bc d0e8 36bd 98ad 6f3d a05d 5cbc
00000030: 99f6 88bd 007e bb39 78a9 f3bc 6a31 dc3d
00000040: 50a9 32be 9fa1 bb3d de4c e93d 2057 2dbc
00000050: 1a1d f13d 44d0 2cbd a5a1 1d3e 2a49 0dbe
00000060: e053 323c b58e 86bd 4023 31bd 795c 37bd
00000070: 4c1c 573e 33fa 76bd ba32 2bbe 1766 06be
-0.22861338 -0.13426402 0.13749482 -0.0033507468 -0.11087516 -0.12055174 0.029149145 -0.07910046
-0.019865397 -0.04465562 0.05851516 -0.013450056 -0.0668766 0.00035761297 -0.029743895 0.107516125
-0.174474 0.09161686 0.113916144 -0.010579854 0.11773129 -0.042190805 0.15393694 -0.13797441
0.010884255 -0.06570188 -0.043246508 -0.044765923 0.21006888 -0.060297202 -0.1671857 -0.13124882
