back-end/public/Script/model.pth (torch, 100359 bytes, 5 tensors)

weight f4 [64, 347]
-0.010531198 -0.02579763 -0.012180701 0.048694298 0.004166197 0.03268078 0.011334069 0.03172922
-0.020962272 -0.019611277 0.04387387 0.025449134 0.0025341772 0.045746095 0.016994774 0.0010566264
-0.01418351 -0.024337612 0.033736378 0.05071655 -0.038218193 0.03360443 0.028808817 -0.027428208
0.038258128 0.0014001131 -0.0064297467 -0.03964871 0.029537812 -0.011818808 0.03019064 0.03103111
-0.012888681 0.040183797 0.048452184 -0.010484893 -0.025961604 -0.015433747 0.014920652 0.014883138
0.011188619 0.035737142 -0.018124182 -0.03506086 0.044589743 -0.0033533461 0.047980122 -0.037462134
0.046445936 -0.027504694 -0.021127582 -0.022839637 0.032495312 -0.012065381 0.026348948 -0.03176956
-0.046303637 0.048038535 -0.042027447 -0.030743558 -0.011807583 0.046489917 -0.0022201054 0.023446195
-0.03338924 -0.013840899 -0.046212092 -0.036965944 -0.026143568 -0.040999535 -0.04804658 -0.035443503
0.013057284 -0.0224492 0.027508013 -3.4436584e-05 0.034386434 -0.00528007 0.022909358 0.040594272
0.019807376 -0.0050130524 0.0051035173 -0.032840908 0.00507408 -0.028044894 0.024084173 0.013105407
0.019156776 -0.018288482 0.02305048 -0.040817257 -0.029809842 -0.03801077 0.05326888 0.047286928
0.051230505 0.011151426 -0.0001719147 0.028831884 -0.010532882 -0.005176734 -0.044583026 0.026608504
-0.049028814 -0.0030551217 0.013868563 0.011307441 -0.02484367 0.04758817 -0.044183232 -0.051666193
0.013690375 0.010980234 0.047977403 0.013849869 -0.04253915 -0.039427 -0.004615415 -0.047901556
-0.012041345 -0.02237627 -0.008810122 0.029868148 -0.018484402 0.038448423 -0.005161494 -0.029496536
-0.043656513 -0.016389709 -0.036225468 0.04959152 0.04819835 0.011738047 -0.050037898 -0.011276118
0.045039274 0.0425027 0.023154974 0.029890068 -0.031763084 0.014668427 0.046500713 0.045916215
-0.052981243 -0.010389559 0.04302822 -0.03729853 -0.009778358 -0.008280352 0.04582481 0.049913518
-0.03786685 0.04401104 -0.043488137 0.05185529 0.04737159 -0.05354631 -0.04162833 -0.034940615
0.0015673749 0.04501348 0.02412469 -0.023032052 0.048952118 -0.02340923 -0.009681884 -0.049176067
-0.005250301 -0.00041990355 0.013242997 -0.038394872 0.003618937 0.012820996 0.015306152 0.022572763
0.022357978 0.02450592 0.0017182045 -0.04820997 -0.030454686 -0.036519416 -0.032064646 -0.01862546
0.038306043 -0.018781241 -0.014522016 -0.052115526 -0.048011 0.032864787 -0.020705417 -0.010869503
0.039937846 -0.010908559 -0.00070359185 -0.03884753 0.03620612 0.03081628 -0.0056038722 0.003440991
-0.052121017 0.018928982 -0.03426957 -0.03436642 0.0144473985 0.008336149 -0.011199541 0.024759851
0.043230362 -0.047125332 -0.028060887 0.0075108446 0.038801342 -0.047805533 0.03619893 -0.042478226
0.009866461 -0.044131342 0.013649136 -0.013887558 0.021062337 -0.03983926 0.014751941 -0.041845113
0.020479962 0.024510488 0.00455977 -0.022955425 0.010125808 0.013309464 -0.01892436 -0.039341766
-0.052035265 -0.0011539571 0.04410898 -0.004049897 -0.045482773 0.042378113 -0.00487547 -0.041019462
-0.004386805 0.005229246 0.01488667 0.0011991374 0.020463854 -0.0015530363 0.035835214 -0.046291575
-0.0045547485 0.013552837 -0.03465186 0.02097901 -0.0522641 0.047260866 -0.0060830414 0.048644505
00000000: 0c8b 2cbc 8d55 d3bc 9091 47bc ac73 473d
00000010: 9884 883b 48dc 053d 88b2 393c 80f6 013d
00000020: 12b9 abbc d4a7 a0bc 16b5 333d b47a d03c
00000030: 7014 263b 4260 3b3d a038 8b3c 807e 8a3a
00000040: f461 68bc ac5f c7bc 282f 0a3d 28bc 4f3d
00000050: ae8a 1cbd cca4 093d 7800 ec3c 1fb1 e0bc
00000060: 8eb4 1c3d 0084 b73a a0b0 d2bb b066 22bd
00000070: 48f9 f13c aca3 41bc 5c52 f73c f434 fe3c
00000080: 0c2b 53bc c497 243d cc75 463d d4c8 2bbc
00000090: 6ead d4bc d4dd 7cbc c075 743c 68d8 733c
000000a0: 7850 373c 1c61 123d 2a79 94bc fa9b 0fbd
000000b0: bca3 363d d0c3 5bbb ce86 443d e571 19bd
000000c0: 183e 3e3d 8651 e1bc c013 adbc 311a bbbc
000000d0: ce19 053d e0ad 45bc c0d9 d73c cc20 02bd
000000e0: e2a8 3dbd 0ec4 443d f924 2cbd ead9 fbbc
000000f0: 9874 41bc 366c 3e3d 307f 11bb 3c12 c03c
00000100: 28c3 08bd f0c4 62bc e448 3dbd 9a69 17bd
00000110: 092b d6bc 21ef 27bd 7ecc 44bd 352d 11bd
00000120: 38ee 553c 62e7 b7bc 7c58 e13c 0070 10b8
00000130: cad8 0c3d 7004 adbb 68ac bb3c 2e46 263d
00000140: 1443 a23c 8844 a4bb 683b a73b 3084 06bd
00000150: 7844 a63b 68be e5bc 2c4c c53c 10b8 563c
00000160: acee 9c3c bad1 95bc 5cd4 bc3c ff2f 27bd
00000170: c533 f4bc 2eb1 1bbd 7830 5a3d f0af 413d
00000180: 14d7 513d 78b4 363c 0044 34b9 d830 ec3c
00000190: 1c92 2cbc 98a1 a9bb b19c 36bd 14fa d93c
000001a0: 70d2 48bd 7038 48bb f838 633c d842 393c
000001b0: f484 cbbc d0eb 423d 7af9 34bd ee9f 53bd
000001c0: 984d 603c 70e6 333c f483 443d 90ea 623c
000001d0: 883d 2ebd 357e 21bd e83c 97bb 6c34 44bd
000001e0: 1049 45bc 704e b7bc 5458 10bc 0cae f43c
000001f0: 9a6c 97bc 187c 1d3d c021 a9bb b8a2 f1bc
00000200: 2cd1 32bd b643 86bc 2861 14bd 7a20 4b3d
00000210: a26b 453d f050 403c 8af4 4cbd 78bf 38bc
00000220: 1a7b 383d 5017 2e3d 80af bd3c 04dc f43c
00000230: 021a 02bd d853 703c 8877 3e3d a412 3c3d
00000240: dc02 59bd f838 2abc 5c3e 303d 58c6 18bd
00000250: 6835 20bc 50aa 07bc ccb2 3b3d 1e72 4c3d
00000260: 451a 1bbd ec44 343d 9e20 32bd 3666 543d
00000270: b608 423d 6053 5bbd 7882 2abd e41d 0fbd
00000280: 6070 cd3a 0e60 383d 24a1 c53c b7ad bcbc
00000290: 0482 483d b7c4 bfbc c4a0 1ebc d86c 49bd
000002a0: b80a acbb 8026 dcb9 28f9 583c f143 1dbd
000002b0: b02b 6d3b 280f 523c a8c6 7a3c 84ea b83c
000002c0: 1428 b73c a4c0 c83c 6035 e13a d177 45bd
000002d0: 1b7c f9bc 6295 15bd 3856 03bd 6c94 98bc
000002e0: cce6 1c3d 1edb 99bc c0ed 6dbc 1777 55bd
000002f0: 2fa7 44bd 3a9d 063d 689e a9bc 0016 32bc
00000300: de95 233d d0b9 32bc 4071 38ba 961e 1fbd
00000310: de4c 143d 6c72 fc3c b0a0 b7bb 4082 613b
00000320: d97c 55bd f410 9b3c 405e 0cbd cec3 0cbd
00000330: c8b4 6c3c 5894 083c 487e 37bc 2cd5 ca3c
00000340: 5212 313d 7e06 41bd f2df e5bc 881d f63b
00000350: 28ee 1e3d bccf 43bd 5445 143d a6fd 2dbd
00000360: f0a6 213c 11c3 34bd a0a0 5f3c a488 63bc
00000370: ec8a ac3c 7e2e 23bd 20b2 713c c865 2bbd
00000380: 98c5 a73c 38ca c83c 206a 953b 040d bcbc
00000390: b8e6 253c f00f 5a3c 4207 9bbc d524 21bd
000003a0: ee22 55bd 6040 97ba 9eab 343d 00b5 84bb
000003b0: 254c 3abd ac94 2d3d 68c2 9fbb 0604 28bd
000003c0: 30bf 8fbb 185a ab3b 38e7 733c 602c 9d3a
000003d0: d0a3 a73c 408f cbba f2c7 123d 3c9c 3dbd
000003e0: 0040 95bb b80c 5e3c 1cef 0dbd 2cdc ab3c
000003f0: e212 56bd 9c94 413d 4054 c7bb 763f 473d

bias f4 [64]
-0.052409448 0.040384814 0.0011559129 0.04540287 0.026989399 0.005275216 0.0531374 0.020064823
-0.00030321773 -0.0372242 0.007554304 -0.06716458 0.020793471 0.016692504 -0.005374613 -0.021962058
0.020768084 0.005340196 -0.008912958 -0.0033155307 -0.02297191 -0.0084432885 -0.03658589 -0.022814717
-0.018584881 -0.030844687 0.018042358 -0.013997961 0.019089699 -0.0068837106 0.01639733 0.018334165
0.010436305 0.05386458 0.029661579 -0.012762895 0.06116789 0.0024057976 -0.011037472 0.032588284
0.028373957 -0.014460642 0.0011717714 -0.048528425 -0.021363039 -0.05287744 -0.01815841 0.02615609
-0.041843634 0.06222679 0.0375417 0.0050102435 -0.026666047 -0.022568716 0.00071555475 0.012279153
0.009828839 -0.025093418 0.0020216256 -0.013543127 -0.012411704 0.0072179064 0.06734411 0.05259443
00000000: 4aab 56bd 8c6a 253d 0082 973a 5cf8 393d
00000010: df18 dd3c b8db ac3b 9aa6 593d fc5e a43c
00000020: 32f9 9eb9 6778 18bd 188a f73b 958d 89bd
00000030: 1257 aa3c b8be 883c 861d b0bb c6e9 b3bc
00000040: d421 aa3c d0fc ae3b a807 12bc 6049 59bb
00000050: 962f bcbc b855 0abc 16db 15bd eee5 babc
00000060: 523f 98bc ffad fcbc 91cd 933c b457 65bc
00000070: 0062 9c3c c090 e1bb b253 863c 8831 963c
00000080: 09fd 2a3c 1ba1 5c3d d7fc f23c 761b 51bc
00000090: 2e8b 7a3d 96aa 1d3b 83d6 34bc 4b7b 053d
000000a0: 8070 e83c 54ec 6cbc 2096 993a bec5 46bd
000000b0: 8a01 afbc 0496 58bd f2c0 94bc 4c45 d63c
000000c0: 3b64 2bbd 85e1 7e3d 53c5 193d f82c a43b
000000d0: c172 dabc 07e2 b8bc 1194 3b3a 802e 493c
000000e0: 2409 213c b690 cdbc 407d 043b fee3 5dbc
000000f0: 765a 4bbc 3084 ec3b b5eb 893d 426d 573d

weight f4 [32, 64]
-0.09943253 0.07113315 -0.07054156 0.083155856 0.1294295 -0.010001004 -0.047473058 0.105817586
-0.01756555 -0.005738317 -0.099417455 -0.08604756 -0.045615084 0.07840018 0.1062353 -0.059419837
0.11212511 -0.001407966 -0.021842912 0.083891675 0.124535546 -0.0819754 0.0072732866 0.08854153
0.023039326 -0.09645458 -0.06184272 0.034307167 -0.05120376 0.120814435 0.10418929 -0.018630713
-0.023296656 0.1130687 0.06723121 -0.081482984 0.006217418 0.08084918 -0.11924522 -0.05302966
0.013751015 -0.033966415 -0.10634586 0.11291918 -0.11606556 0.07251439 -0.046017915 0.027502239
-0.05638576 -0.111791596 0.103254884 0.042134345 0.022741279 0.07341051 0.10757932 -0.08460049
0.11707503 -0.11303128 -0.10328111 -0.03545364 -0.09764375 0.042985573 -0.025704123 -0.057098314
-0.07593791 -0.0048443526 -0.09866659 0.11800769 0.0881631 -0.017759204 0.07566142 -0.029345423
0.03172637 0.09622492 -0.009627906 -0.027594244 0.090746716 -0.056987256 0.06678822 0.0015008937
0.055811867 0.0005245805 0.04618272 -0.05204691 0.073336855 0.10050884 0.02410926 -0.071702234
-0.088040575 -0.029049069 0.012811166 -0.013435319 0.10834934 0.068218134 -0.04571437 -0.10568468
0.07778182 0.08631052 0.086584836 0.12651326 0.058875404 0.05366451 0.09588 0.09248433
-0.04128234 0.01663311 0.111092255 0.09770246 0.09400531 0.097791895 0.086141765 0.10142331
-0.03570452 0.11801744 0.08264127 -0.048448518 0.11752623 0.016823828 0.041411586 -0.092651084
-0.024646522 0.09011631 -0.05048172 -0.10941601 0.058189645 0.095262825 -0.050034955 -0.042870462
0.12111065 0.05941865 0.096987516 0.03366138 -0.056766853 0.10385299 -0.06286691 0.103636205
0.013572946 0.082590744 -0.012968853 -0.115962505 0.006360799 0.08000423 0.06243521 0.094515204
0.03132789 -0.051493973 0.066136345 -0.09628028 -0.08472513 0.09332663 -0.12220536 -0.040518686
0.033258572 0.0059320927 -0.10351606 -0.10712436 -0.04034911 0.0702419 0.08968362 -0.027218834
-0.08218141 0.09157795 -0.071646854 0.0066272467 -0.062478825 0.1138784 -0.07325064 0.019602865
0.051368937 -0.03037554 0.068629995 -0.0829355 -0.08521408 0.034172997 -0.11985421 0.053667292
-0.01795809 -0.042604446 0.088259876 -0.10460754 0.065658614 -0.060495764 -0.019389495 0.08476189
-0.069447994 -0.060105413 -0.050841466 -0.12498632 -0.02783598 -0.063151434 0.09966351 -0.029633999
-0.060770422 0.045068175 -0.088149846 0.07065013 0.05631721 -0.09321688 0.052445218 0.03213592
0.058393776 0.07583278 -0.028345225 -0.013383401 -0.1061621 0.031181216 -0.12617004 0.07289735
-0.018499315 0.014718264 0.09065227 0.06968713 0.07339747 -0.007074997 0.013101488 -0.054477695
0.05712019 -0.0058980654 -0.04708373 0.012184501 -0.07674982 -0.10173493 -0.085205294 0.07751694
-0.12740262 0.075959705 -0.085896574 -0.0072640995 -0.01213349 0.115700744 -0.11761273 0.034079686
-0.08616309 0.11775648 0.042267486 -0.074659705 0.08853533 -0.030244859 -0.07063484 0.062790126
-0.05820286 -0.0661946 0.10657484 0.097669765 -0.03791608 0.11358781 0.10244099 -0.087505996
0.009052725 -0.122305915 0.050038084 -0.0820628 0.044759843 0.025788158 0.06252112 -0.050404426
00000000: 48a3 cbbd 42ae 913d 1878 90bd 9e4d aa3d
00000010: 2b89 043e 40db 23bc 1c73 42bd e4b6 d83d
00000020: a1e5 8fbc 7e08 bcbb 619b cbbd b439 b0bd
00000030: e2d6 3abd 4690 a03d e591 d93d 3762 73bd
00000040: daa1 e53d 808b b8ba e8ef b2bc 66cf ab3d
00000050: 7e0c ff3d b8e2 a7bd c054 ee3b 4355 b53d
00000060: f8bc bc3c fb89 c5bd cb4e 7dbd ac85 0c3d
00000070: 09bb 51bd 8f6d f73d 3261 d53d 709f 98bc
00000080: a1d8 bebc 9090 e73d 84b0 893d 8de0 a6bd
00000090: 7bbb cb3b 4194 a53d d736 f4bd a135 59bd
000000a0: f04b 613c 5e20 0bbd dccb d9bd 2c42 e73d
000000b0: c8b3 edbd 6d82 943d 487d 3cbd 604c e13c
000000c0: c1f4 66bd fef2 e4bd 4c77 d33d 1095 2c3d
000000d0: eb4b ba3c 4058 963d 8c52 dc3d 0643 adbd
000000e0: 09c5 ef3d f27c e7bd 0c85 d3bd d637 11bd
000000f0: 72f9 c7bd a411 303d 7491 d2bc ecdf 69bd
00000100: 5685 9bbd 60bd 9ebb b611 cabd 04ae f13d
00000110: db8e b43d c07b 91bc 60f4 9a3d d065 f0bc
00000120: 83f3 013d 9211 c53d 5dbe 1dbc 530d e2bc
00000130: 6ad9 b93d 786b 69bd 43c8 883d a3b9 c43a
00000140: fc9a 643d 0084 093a 182a 3d3d 242f 55bd
00000150: a231 963d 94d7 cd3d c880 c53c 9fd8 92bd
00000160: 9e4e b4bd 50f8 edbc ede5 513c d01f 5cbc
00000170: 42e6 dd3d f3b5 8b3d fe3e 3bbd 3671 d8bd
00000180: 134c 9f3d 92c3 b03d 6453 b13d b18c 013e
00000190: 5627 713d 51cf 5b3d bc5c c43d 6d68 bd3d
000001a0: ac17 29bd 2942 883c 5684 e33d 3a18 c83d
000001b0: db85 c03d 1e47 c83d 186b b03d 06b7 cf3d
000001c0: e73e 12bd 21b3 f13d d33f a93d f471 46bd
000001d0: 98b1 f03d 20d2 893c 329f 293d dabf bdbd
000001e0: 81e7 c9bc e68e b83d ecc5 4ebd 8015 e0bd
000001f0: 4458 6e3d 2819 c33d 74f1 4cbd f098 2fbd
00000200: dc08 f83d f860 733d 64a1 c63d 84e0 093d
00000210: 5c84 68bd e0b0 d43d 5ec0 80bd 383f d43d
00000220: 1061 5e3c 5625 a93d 507b 54bc c07d edbd
00000230: 406e d03b 42d9 a33d 10bc 7f3d 3091 c13d
00000240: ac51 003d 58eb 52bd 7e72 873d 982e c5bd
00000250: 5e84 adbd 0822 bf3d ce46 fabd ecf6 25bd
00000260: 243a 083d 0062 c23b 3a00 d4bd 0464 dbbd
00000270: 1c45 25bd fcda 8f3d 0cac b73d 08fa debc
00000280: ba4e a8bd 388d bb3d 96bb 92bd 6029 d93b
00000290: cce9 7fbd 1439 e93d 6e04 96bd 3096 a03c
000002a0: 3c68 523d 20d6 f8bc e28d 8c3d 16da a9bd
000002b0: b884 aebd fcf8 0b3d 2076 f5bd 3cd2 5b3d
000002c0: d81c 93bc 0082 2ebd 98c1 b43d 7a3c d6bd
000002d0: 0678 863d 68ca 77bd b8d6 9ebc a497 ad3d
000002e0: c03a 8ebd 1831 76bd 243f 50bd d4f8 ffbd
000002f0: 4808 e4bc 8a55 81bd 621c cc3d 00c3 f2bc
00000300: 68ea 78bd 6899 383d e887 b4bd 04b1 903d
00000310: e0ac 663d 7ee8 bebd ccd0 563d f4a0 033d
00000320: 502e 6f3d 374e 9b3d 3f34 e8bc 0d46 5bbc
00000330: 846b d9bd c06f ff3c b832 01be 354b 953d
00000340: e08b 97bc e024 713c e6a7 b93d 20b8 8e3d
00000350: 6a51 963d 60d5 e7bb a0a7 563c 0124 5fbd
00000360: dcf6 693d 8f44 c1bb dfda 40bd 80a1 473c
00000370: 022f 9dbd 675a d0bd 1d80 aebd 34c1 9e3d
00000380: d575 02be c390 9b3d 8bea afbd af07 eebb
00000390: 8ccb 46bc 83f4 ec3d f1de f0bd 2497 0b3d
000003a0: 4676 b0bd 4f2a f13d ac20 2d3d 30e7 98bd
000003b0: 0352 b53d 11c4 f7bc 00a9 90bd 1c98 803d
000003c0: 1f66 6ebd 0991 87bd e943 da3d 1607 c83d
000003d0: e44d 1bbd baa0 e83d 95cc d13d 5836 b3bd
000003e0: e151 143c 867b fabd bcf4 4c3d 8b10 a8bd
000003f0: 1956 373d b041 d33c 130b 803d df74 4ebd

bias f4 [32]
0.0956798 -0.097860694 -0.12133221 -0.095119245 0.05329648 0.11073607 -0.0055357013 -0.077747494
-0.079679415 -0.09108946 0.06270618 0.07305414 -0.020694613 0.023955664 -0.010292515 -0.09193803
-0.045419853 0.12759939 -0.06982921 -0.06548785 -0.11466639 -0.04944393 0.10233264 -0.0884435
-0.09426308 0.026557297 0.10230827 -0.014958158 0.0042649037 0.048855264 0.004105687 0.025108045
00000000: c5f3 c33d 306b c8bd 067d f8bd e1cd c2bd
00000010: 694d 5a3d 98c9 e23d d464 b5bb 143a 9fbd
00000020: f62e a3bd 1c8d babd 196c 803d 699d 953d
00000030: c087 a9bc ab3e c43c f0a1 28bc 024a bcbd
00000040: 2b0a 3abd 6aa9 023e 9e02 8fbd 7e1e 86bd
00000050: 36d6 eabd b885 4abd c693 d13d de21 b5bd
00000060: 000d c1bd b08e d93c 0087 d13d 1013 75bc
00000070: 9bc0 8b3b 751c 483d 0089 863b 63af cd3c

weight f4 [1, 32]
0.010744699 -0.06806398 -0.15501463 -0.11663836 -0.00040687312 -0.07685627 0.09710281 -0.13281338
0.10969504 -0.12950185 0.072875515 -0.023475675 -0.1392173 -0.24137086 0.10110505 0.09963547
-0.15026839 -0.035779666 -0.1095914 0.058837272 -0.028925058 0.012484129 0.152359 -0.16125494
0.22726111 0.12176551 0.12375212 -0.14314431 -0.19933753 0.10660023 0.1430689 0.044627503
00000000: 890a 303c 2165 8bbd 28bc 1ebe 18e0 eebd
00000010: 9651 d5b9 d266 9dbd d7dd c63d 3b00 08be
00000020: cba7 e03d 229c 04be c23f 953d 0f50 c0bc
00000030: fb8e 0ebe ec29 77be 2a10 cf3d ae0d cc3d
00000040: f5df 19be b38d 12bd 7571 e0bd 5aff 703d
00000050: 3ef4 ecbc 3b8a 4c3c ff03 1c3e 0420 25be
00000060: 23b7 683e 3260 f93d c071 fd3d 6c94 12be
00000070: 231f 4cbe 3951 da3d a780 123e 54cb 363d
