back-end/src/Script/model.pth (torch, 99335 bytes, 5 tensors)

fc1.weight f4 [64, 347]
0	0x3cbe5f75	0.023238877
1	0x3dae6185	0.08514694
2	0x3e34d687	0.1765996
3	0xbcfe4ca8	-0.031042412
4	0x3dc20123	0.09472873
5	0x3d96b83a	0.07359357
6	0x3e1b2892	0.15152195
7	0x3e49daae	0.19712326
8	0x3e3f214a	0.18665043
9	0xbc7c901d	-0.015415219
10	0x3d8c2a4f	0.06844007
11	0x3e5d0b51	0.21586348
12	0xbdc0b8b7	-0.094102316
13	0xbe34786e	-0.17624065
14	0x3d1bf9f5	0.038080174
15	0xbde28940	-0.110613346
16	0xbd852878	-0.065018594
17	0xbdf871bb	-0.12131067
18	0xbdf89c22	-0.12139155
19	0xbe507e19	-0.20360602
20	0xbd48125d	-0.048845638
21	0xbd620a82	-0.055185802
22	0xbe81f833	-0.25384673
23	0x396457ea	0.00021776525
24	0xbe00f0fb	-0.12591927
25	0xbb92be93	-0.0044782846
26	0x3d2da12c	0.042390034
27	0xbd2d53eb	-0.04231636
28	0xbe154081	-0.14575388
29	0x3dd8842e	0.10572086
30	0xbe400388	-0.18751347
31	0xbc24bc82	-0.010054709
32	0x3e0f98ff	0.14023207
33	0x3d967570	0.07346618
34	0x3ce46b00	0.027883053
35	0xbc94dd74	-0.018172003
36	0x3ca34654	0.019930996
37	0x3ddc675f	0.10761904
38	0x3c9da2d8	0.019242689
39	0xbd27b28f	-0.04094177
40	0x3d9d0015	0.07666031
41	0x3d7f5713	0.0623389
42	0xbd13a05c	-0.036041602
43	0x3b0e6685	0.0021728587
44	0x3c8ee716	0.017444175
45	0x3da40964	0.080096036
46	0xbd28ebe8	-0.041240603
47	0xbd0e916a	-0.034806646
48	0x3dce2ca4	0.10067108
49	0x3b6a7b7e	0.0035779173
50	0xbdb4bb74	-0.08824816
51	0xbc986742	-0.018603925
52	0x3dd96a98	0.10616034
53	0xbdb3d353	-0.08780541
54	0xbdeb0607	-0.11475759
55	0xbdbe45cb	-0.09290656
56	0x3e11d737	0.14242254
57	0xbd6f0c28	-0.058361202
58	0x3e428b76	0.18998513
59	0xbd06de5d	-0.032926906
60	0xbd80b304	-0.062841445
61	0x3c7f3f80	0.015579104
62	0xbd516475	-0.051121194
63	0xbd458a62	-0.048227675
64	0x3d4b54bd	0.04964136
65	0xbdcc722c	-0.09982714
66	0x3da2accb	0.07943114
67	0x3d9ee4af	0.07758462
68	0xbdad6402	-0.084663406
69	0xbd8faaef	-0.07015025
70	0xbc80b2d3	-0.01571027
71	0xbd35c0c5	-0.044373292
72	0x3cbf5256	0.02335469
73	0xbe4a6d20	-0.1976819
74	0x3ce84384	0.028352506
75	0xbd66a580	-0.056310177
76	0x3cb3f0ba	0.021965373
77	0xbc9831df	-0.018578468
78	0xbd6cce0b	-0.057813685
79	0x3d8145e9	0.063121624
80	0xbd06f031	-0.032943908
81	0x3c471d58	0.012152992
82	0x3d94b8c9	0.072618075
83	0xbe183622	-0.148644
84	0x3e2177cd	0.15768357
85	0xbd6ab8f2	-0.057305284
86	0xbd6ec547	-0.058293607
87	0xbddd9308	-0.108190596
88	0x3cc839ef	0.024441687
89	0xbce4e913	-0.02794317
90	0xbe008564	-0.12550884
91	0x3da76a85	0.08174614
92	0xbd63d6f8	-0.055624932
93	0x3d9a6a89	0.07539851
94	0x3d9246ef	0.07142436
95	0x3dbf8ccc	0.09353027
96	0xbc2553d2	-0.010090785
97	0xbda229d7	-0.079181366
98	0x3da78738	0.08180088
99	0xbddbe2ea	-0.1073664
100	0xbdc14a09	-0.09437949
101	0x3d1dcd2b	0.03852574
102	0x3dac1999	0.0840332
103	0xbd847163	-0.06466939
104	0xbdc73ee4	-0.09728792
105	0xbc737ff3	-0.014862048
106	0xbd67e460	-0.05661428
107	0xbd692efd	-0.056929577
108	0x3dbea1ad	0.09308181
109	0x3df35a43	0.118824504
110	0x3e5290e8	0.2056309
111	0x3d1d7a55	0.038446743
112	0x3da729df	0.08162283
113	0xbd349e36	-0.044096194
114	0xbc90281e	-0.017597254
115	0xbcd3d403	-0.025857931
116	0x3d8fffca	0.0703121
117	0xbd4a84c4	-0.04944302
118	0xbd3060f3	-0.043061208
119	0xbd2f1ce0	-0.042752147
120	0xbc10e246	-0.00884301
121	0xbd044130	-0.03228873
122	0x3dc75d99	0.09734649
123	0xbda923e1	-0.082587965
124	0x3cb2c31c	0.021821551
125	0x3d94f110	0.072725415
126	0xbbda225b	-0.0066569275
127	0x3d6c4960	0.057687163
128	0x3da940e8	0.08264333
129	0xbd44b3b4	-0.04802294
130	0xbd99b664	-0.075054914
131	0xbcd0c8bb	-0.02548634
132	0xbdab4e01	-0.083644874
133	0x3e04ebfb	0.12980644
134	0x3d616fe0	0.055038333
135	0x3e0c819f	0.13721322
136	0x3cbd2540	0.023089051
137	0xbde41673	-0.11137094
138	0x3da24ce6	0.079248235
139	0x3dd42872	0.10359277
140	0xbc59f136	-0.013302138
141	0x3bdb88e6	0.006699669
142	0x3abbeccf	0.0014337542
143	0x3b3369bd	0.0027376257
144	0x3d965bd5	0.07341734
145	0x3e11c3d3	0.14234857
146	0xbc2bff86	-0.010497933
147	0x3d1cb9d5	0.03826316
148	0x3cb2dcf7	0.02183388
149	0xbdab2fa1	-0.08358694
150	0x3d79c6c3	0.06098057
151	0x3de4e86a	0.11177142
152	0x3c335acd	0.010946942
153	0x3e059352	0.1304448
154	0xbc9e551a	-0.019327689
155	0xbd5eb3b1	-0.054370586
156	0x3d054d77	0.03254458
157	0x3ca07673	0.019587731
158	0xbcb7e093	-0.022445953
159	0x3da3de76	0.080014154
160	0x3d4f8747	0.05066612
161	0xbbbbf4d3	-0.0057359724
162	0xbe09e9b4	-0.13468057
163	0xbd465617	-0.048421945
164	0xbd28bca5	-0.04119553
165	0xbcf8a78e	-0.030353334
166	0x3e108501	0.14113237
167	0x3c3d949a	0.011571074
168	0x3d81d4bd	0.06339405
169	0x3d928a64	0.07155302
170	0x3cf1498b	0.029454013
171	0xbc92614f	-0.017868666
172	0xbc7bf4b7	-0.015378169
173	0x3cdf2a47	0.02724184
174	0xbd8d5166	-0.06900291
175	0xbcd90b9c	-0.026494794
176	0xbd96458d	-0.073374845
177	0x3ccb9432	0.024850938
178	0xbe78bcda	-0.24290791
179	0x3c587ba2	0.01321307
180	0xbe239a1d	-0.15976758
181	0x3df0f8e7	0.11766224
182	0xbdd61498	-0.10453147
183	0x3e095e78	0.13414943
184	0x3d88ee20	0.06686044
185	0xbd5cb77d	-0.053885926
186	0x3de6957b	0.1125898
187	0xbd839963	-0.064257406
188	0x3d881427	0.06644469
189	0x3d920602	0.07130052
190	0xbd1da0e9	-0.038483534
191	0xbc606426	-0.013695752
192	0x3c842bfa	0.01613425
193	0x3c9d19d4	0.019177355
194	0xbd5e3203	-0.054246914
195	0xbd3d058d	-0.04614787
196	0x3dc96826	0.09834318
197	0xbdaf59b7	-0.085620336
198	0xbda0df9a	-0.078551486
199	0x3d327faa	0.04357878
200	0xbd9da5b0	-0.07697618
201	0x3dacca3e	0.08437012
202	0xbe0c4117	-0.13696705
203	0xbd8ecfa7	-0.069732
204	0x3ce97d09	0.028502004
205	0xbdc3db86	-0.09563355
206	0xbd76185a	-0.060081817
207	0xbbdcb636	-0.0067355884
208	0xbd93d3a3	-0.07218101
209	0x3c3c4b12	0.0114925075
210	0x3d95c8cc	0.073136896
211	0xbc39d323	-0.011341843
212	0x3d9e7260	0.07736659
213	0x3c1b8d2c	0.009494107
214	0xbd1e2f61	-0.038619403
215	0xbccd4a18	-0.025059745
216	0xbd04ae2a	-0.03239266
217	0x3dc083e7	0.094001584
218	0xbcd980f8	-0.026550755
219	0x3dc109fe	0.09425734
220	0xbea798e1	-0.32733825
221	0xbd504878	-0.05085036
222	0x3cfe0778	0.03100942
223	0xbd6ca9be	-0.057779066
224	0xbcc01db3	-0.023451662
225	0x3df1e080	0.11810398
226	0xbcb81110	-0.022469074
227	0x3d213f1d	0.03936683
228	0xbdedd7e5	-0.11613444
229	0x3dd4ac4f	0.10384428
230	0x3d5c31fb	0.053758603
231	0xbcb2bc06	-0.021818172
232	0x3d9f65d7	0.07783096
233	0x3d0309a1	0.031991605
234	0x3d18ca85	0.037302513
235	0x3c1ca841	0.009561599
236	0x3d886b18	0.066610515
237	0x3dff7d7c	0.12475106
238	0x3df6373c	0.12022254
239	0x3dc28794	0.09498516
240	0x3c0360fa	0.0080187265
241	0x3c1b0a3b	0.009462888
242	0xbdaa1789	-0.0830527
243	0xbe01b921	-0.12668277
244	0x3e738416	0.23780856
245	0xbda4a147	-0.08038574
246	0xbd444a34	-0.047922328
247	0x3cff81d2	0.031189833
248	0xbcfadd7e	-0.030623194
249	0xbe010c8b	-0.12602441
250	0x3d48c128	0.049012333
251	0xbe054bd1	-0.13017203
252	0xbdc40a95	-0.09572331
253	0xbde8f022	-0.11373927
254	0xbdf72fd8	-0.12069672
255	0xbd970d73	-0.07375612

fc1.bias f4 [64]
0	0xbcd6cb28	-0.02621992
1	0x3bc8ac28	0.0061240382
2	0xbc6b0541	-0.014344514
3	0xbb660cf0	-0.0035102926
4	0x3d365236	0.044511996
5	0xbb1d4c73	-0.0024001866
6	0x3bd590ba	0.006517497
7	0xbd289562	-0.041158088
8	0xb981b8dc	-0.00024742528
9	0x3d309668	0.04311219
10	0xbcf8de8f	-0.030379562
11	0xbd0583c0	-0.03259635
12	0xbd963a6d	-0.073353626
13	0xbd1cec33	-0.038311195
14	0xbd2cf60a	-0.04222683
15	0x3d1a4e4b	0.037672322
16	0xbd717879	-0.058952782
17	0x3c7b7eda	0.015350068
18	0x3d116e31	0.035505477
19	0x3cca6327	0.024705483
20	0x3c6f8440	0.014618933
21	0x3d3a7cfd	0.045529354
22	0xbd310191	-0.043214384
23	0x3d41ea39	0.047342513
24	0xbc1b94e4	-0.0094959475
25	0x3c67a3ab	0.014138143
26	0xbd0660e1	-0.032807235
27	0xbb84f9a8	-0.0040580817
28	0xbc072e1c	-0.008250739
29	0x3c6ff2d8	0.014645301
30	0xbb620103	-0.0034485466
31	0x3d8007e4	0.06251505
32	0x3d314dde	0.04328715
33	0x3c48a6e1	0.012246818
34	0xbc1c5088	-0.0095406845
35	0x3cf33160	0.02968663
36	0xbbefd128	-0.0073186345
37	0x3cd59bb8	0.026075229
38	0xbd13b210	-0.036058486
39	0x3c35ae20	0.011088878
40	0xbccec650	-0.025241047
41	0xba045b9f	-0.0005049053
42	0xbd4ad2b0	-0.049517334
43	0x3d9b7f32	0.0759262
44	0x3cb8a31d	0.022538716
45	0xbcf58ed7	-0.029975338
46	0xbd725ea8	-0.059172302
47	0x3b6e552b	0.0036366682
48	0xbbe934ce	-0.0071168905
49	0x3c156065	0.0091172205
50	0x3be6b5c8	0.007040713
51	0xbd432b94	-0.04764898
52	0xbd308553	-0.043095898
53	0x3d2836b6	0.0410678
54	0xbc8cf886	-0.017208349
55	0x3cee2204	0.029068954
56	0x3b1b80b0	0.0023727827
57	0x3d63c489	0.055607352
58	0xbd5e20a2	-0.05423034
59	0x3adaafa0	0.001668442
60	0xbcaa0bda	-0.020757604
61	0xbd75e614	-0.060033873
62	0xbc37f5dc	-0.011228051
63	0xbd699382	-0.05702544

fc2.weight f4 [32, 64]
0	0x3d8fe21a	0.07025547
1	0x3c72f860	0.014829725
2	0x3da78cd4	0.08181158
3	0x3dec6e1a	0.11544438
4	0xbd8e6f87	-0.06954866
5	0x3dfbf893	0.12303271
6	0xbdefc4ff	-0.11707496
7	0x3d4e1cc8	0.050320417
8	0xbd8193ad	-0.06326995
9	0x3db8c3a0	0.090216875
10	0xbd5f6359	-0.054538105
11	0xbdb9e9c2	-0.09077789
12	0x3da40cb4	0.080102354
13	0x3d6c7d39	0.05773661
14	0xbdbabb4e	-0.09117757
15	0x3dde64ea	0.108590916
16	0x3cb6f93f	0.022335647
17	0x3d8e2aac	0.06941733
18	0x3dd2fb4c	0.10301837
19	0x3c493139	0.012279802
20	0x3dd8df05	0.105894126
21	0x3dcc0ac8	0.09962994
22	0xbc32f950	-0.010923699
23	0x3d916b8c	0.07100591
24	0x3d907b00	0.070547104
25	0xbcd8f64d	-0.026484633
26	0x3ddfb088	0.109223425
27	0x3c8039d0	0.015652567
28	0xbdb72872	-0.08943261
29	0x3c653210	0.013988987
30	0xbdead77f	-0.11466884
31	0xbd2b08c8	-0.04175642
32	0x3c395cd0	0.011313632
33	0xbdb40859	-0.08790655
34	0xbdc92f98	-0.09823531
35	0x3c276b20	0.010218412
36	0xbc5f2750	-0.013620213
37	0x3db737dc	0.08946201
38	0xbdefa6d8	-0.11701745
39	0xbd4d4f30	-0.050124347
40	0x3de26ea8	0.11056262
41	0xbd728ad3	-0.059214424
42	0x3cc4a048	0.02400221
43	0xbcfb9407	-0.030710233
44	0x3d642b25	0.05570521
45	0x3bac0480	0.00524956
46	0x3dbf5081	0.09341527
47	0xbcc6ddd9	-0.024275707
48	0x3de04388	0.109503806
49	0x3c5f8e20	0.013644725
50	0x3dba5f34	0.0910019
51	0x3dd40e6c	0.10354313
52	0xbc8ad170	-0.01694557
53	0xbd02828c	-0.03186278
54	0x3db76fe8	0.08956891
55	0xbbfd1e00	-0.0077245235
56	0x3db894fa	0.0901279
57	0xbdaa28c5	-0.083085574
58	0x3da018ca	0.07817228
59	0xbdf14d1c	-0.117822856
60	0x3b825eb4	0.0039785746
61	0x3c71e6f1	0.014764533
62	0x3da3303e	0.07968186
63	0x3d9b1c4e	0.07573758
64	0xbc9de078	-0.019272074
65	0xbcc340c0	-0.023834586
66	0xbd17c205	-0.037050266
67	0x3d167f88	0.036742717
68	0x3d3b2cc5	0.045696992
69	0x3c00510d	0.007831824
70	0x3cdc2f81	0.02687812
71	0xbd5e9e44	-0.054350153
72	0x3ccb83d4	0.024843134
73	0x3d8b61e2	0.06805779
74	0x3c13ba1c	0.00901654
75	0xbdc4f31e	-0.096166834
76	0x3d3a0f4a	0.045424737
77	0x3d7b6633	0.06137676
78	0x3c8c3fa0	0.017120183
79	0x3dee33ee	0.116309986
80	0x3ca71767	0.020396901
81	0x3cb87e0b	0.02252104
82	0x3d16455f	0.03668725
83	0x3d5ef100	0.054429054
84	0x3ab9723b	0.0014148423
85	0xbbc77f27	-0.006088156
86	0x3de8f98c	0.11375722
87	0xbd0af58e	-0.033925585
88	0x3d4a0e5c	0.0493301
89	0x3df4ffa1	0.1196282
90	0x3df9496e	0.12172209
91	0xbddc17ec	-0.1074675
92	0xbcee98f8	-0.029125676
93	0x3d8f2444	0.06989339
94	0xbd140f44	-0.03614737
95	0xbcbe7f7a	-0.023254145
96	0xbd36e200	-0.044649124
97	0x3cc69b03	0.024243837
98	0xbd66b8fc	-0.05632876
99	0xbda09226	-0.078403756
100	0x39a65600	0.00031726062
101	0x3da9a136	0.08282702
102	0xbdb8082c	-0.08985934
103	0x3d8abd40	0.06774378
104	0xbdb03260	-0.08603358
105	0xbd9f9479	-0.07791991
106	0xbd853afe	-0.065053925
107	0xbe0a3e96	-0.13500437
108	0x3dd7e160	0.10541034
109	0x3d59c9a4	0.053170815
110	0x3cd59986	0.026074182
111	0x3de5fcf3	0.11229887
112	0xbdc11f4b	-0.09429797
113	0x3dcabf92	0.098998204
114	0x3de41858	0.11137456
115	0x3a8223c3	0.0009928871
116	0x3c225bc0	0.00990957
117	0x3d0bee6c	0.034162924
118	0x3dce112b	0.10061868
119	0xbd4260b8	-0.04745552
120	0xbdb7f6a8	-0.08982593
121	0x3da76cd6	0.08175056
122	0xbcb0e32b	-0.021592697
123	0xbd8a81ac	-0.06763014
124	0xbde40181	-0.11133099
125	0x3cbc9b0d	0.023023153
126	0x3b711240	0.003678456
127	0xbdce172e	-0.10063015
128	0xbd2b35a8	-0.041799217
129	0x3d20f1ec	0.039293215
130	0x3df989f6	0.12184517
131	0x3dc9034e	0.098150834
132	0x3dcee19c	0.10101625
133	0x3ce2d820	0.027690947
134	0x3de8bc56	0.11364047
135	0xbd6a6a94	-0.057230547
136	0xbd9da1ec	-0.076969
137	0xbd8ef458	-0.069801986
138	0xbbcece00	-0.006311178
139	0xbc14ef90	-0.009090319
140	0xbcf46b70	-0.029836386
141	0xbc661250	-0.014042452
142	0x3cad0828	0.021122053
143	0xbde87480	-0.113503456
144	0x3d99607e	0.074891075
145	0x3c88bdc8	0.016692057
146	0x3d1b7774	0.037955716
147	0x3d62ea8c	0.055399463
148	0x3ccf4b30	0.025304407
149	0xbd202d58	-0.039105743
150	0x3d361208	0.04445079
151	0xbc3bb3f0	-0.011456475
152	0xbddc0a7c	-0.10744187
153	0x3baacfa0	0.005212739
154	0xbddfb6b6	-0.10923521
155	0xbdcf1930	-0.10112226
156	0xbca95098	-0.020668313
157	0xbc31d040	-0.010852873
158	0xbdb3605c	-0.087586135
159	0xbdc33a80	-0.09532642
160	0xbda494b8	-0.08036178
161	0x3c7f7b00	0.01559329
162	0xbaa5b180	-0.00126414
163	0xbdef94cc	-0.116983026
164	0x3a94c700	0.001135081
165	0x3dd342f8	0.10315508
166	0xbd37be8c	-0.044859454
167	0x3d470754	0.048590973
168	0xbdf610b0	-0.12014902
169	0x3cbbdb60	0.022931755
170	0x3dbf321a	0.09335728
171	0x3d5becac	0.053692505
172	0xbd86aca4	-0.06575897
173	0xbda0001c	-0.07812521
174	0xbded718a	-0.115939215
175	0xbd803b64	-0.06261328
176	0xbd63630c	-0.05551438
177	0xbde35868	-0.111008465
178	0xbdb2faaa	-0.087392166
179	0x3da6dede	0.08147977
180	0x3c7e2390	0.015511408
181	0x3da99d88	0.08282
182	0x3dafad40	0.08577967
183	0x3d0b659c	0.03403245
184	0x3cc1c910	0.023655444
185	0xbd9a8fc2	-0.07546951
186	0x3d997b50	0.07494223
187	0x3cfb0aa0	0.030644715
188	0xbca4b988	-0.020108
189	0xbde76d0a	-0.113000944
190	0xbd9e3d64	-0.07726553
191	0xbd56cac0	-0.05243945
192	0x3c9ba90a	0.019001503
193	0xbd9bfada	-0.076162055
194	0x3defcffc	0.11709592
195	0x3de2d9fe	0.11076735
196	0xbd0fb1f2	-0.03508181
197	0xbd89ad6e	-0.06722532
198	0x3d4a7f8b	0.04943804
199	0x3ddcca46	0.10780768
200	0xbd323b4d	-0.043513585
201	0x3dc70778	0.097182214
202	0xbddccedd	-0.107816435
203	0xbd3dbb2c	-0.04632108
204	0xbd37b51e	-0.04485046
205	0x3bf54072	0.007484489
206	0x3dc71820	0.09721398
207	0xbc863c80	-0.01638627
208	0x3e11f8be	0.14255044
209	0x3dbbcaee	0.09169565
210	0xbdd75421	-0.10514093
211	0xbce1e41f	-0.027574597
212	0x3de428c9	0.11140592
213	0x3daf2bfe	0.08553313
214	0x3cd98cc8	0.026556388
215	0xba6d2a40	-0.0009047128
216	0x3dcf6624	0.10126904
217	0x3b9123c7	0.004429314
218	0xbd3d0298	-0.04614505
219	0xbc94ed18	-0.018179461
220	0xbdda1008	-0.10647589
221	0xbdf179ea	-0.117908314
222	0x3da0517e	0.078280434
223	0x3cc22cf2	0.023703072
224	0x3d1656a4	0.03670372
225	0x3dd422db	0.10358211
226	0x3dd7b724	0.10532978
227	0xbdf95678	-0.12174696
228	0xbdafaf9e	-0.08578418
229	0xbd68be84	-0.056822315
230	0x3bb16d90	0.005414672
231	0xbdcf7c4c	-0.101311296
232	0x3dac1f78	0.0840444
233	0xbcf8943d	-0.030344123
234	0xbd317dac	-0.04333274
235	0xbe1d4a31	-0.15360333
236	0x3decc1af	0.1156038
237	0x3de88ae6	0.11354618
238	0xbb1b49bd	-0.0023695074
239	0xbcbec515	-0.023287335
240	0xbd163e75	-0.036680657
241	0xbd966dfa	-0.07345195
242	0xbd3dc7c8	-0.046333104
243	0x3d91e358	0.071234405
244	0xbdb0126a	-0.08597262
245	0xbdfdbcae	-0.123895034
246	0xbde16f06	-0.11007504
247	0xbd22d8ec	-0.039757654
248	0xbd14abdc	-0.03629671
249	0x3de93062	0.113861814
250	0xbcd2dc58	-0.025739834
251	0x3d2bbdb0	0.041928947
252	0xbc161ecd	-0.009162617
253	0x3ddd76fe	0.108137116
254	0x3de05cee	0.10955225
255	0x3cbf9c2b	0.023389896

fc2.bias f4 [32]
0	0x3d8e01f1	0.06933964
1	0x3dbc65eb	0.09199127
2	0x3d7c8874	0.06165357
3	0xbd7bf891	-0.06151635
4	0xbd8be85e	-0.0683143
5	0x3b2e5abe	0.002660438
6	0xbde6d5d8	-0.11271256
7	0x3c7231d2	0.014782386
8	0xbb820880	-0.0039682984
9	0x3ce19433	0.027536487
10	0x3d5f4cd4	0.05451663
11	0x3d448c38	0.047985286
12	0xbdb01648	-0.08598
13	0x3d3b0430	0.04565829
14	0x3de91f82	0.11382963
15	0xbb5ff600	-0.0034173727
16	0x3ce35abb	0.027753225
17	0xbcf9c4d1	-0.030489357
18	0x3d0904d7	0.03345188
19	0x3d774994	0.060372904
20	0x3d77cfaf	0.060500797
21	0x3d8cac14	0.06868759
22	0x3d9a0e54	0.07522264
23	0xbda6edcf	-0.08150827
24	0x3e01dc75	0.12681754
25	0x3da8b1aa	0.08237012
26	0xbdd14b69	-0.102194615
27	0x3dee34ba	0.116311505
28	0x3db55320	0.088537455
29	0x3da8f3cf	0.08249628
30	0x3d8e5de6	0.069515035
31	0x3cd007e4	0.025394388

fc3.weight f4 [1, 32]
0	0x3cf67680	0.030085802
1	0x3d41c92f	0.047311004
2	0x3e21f159	0.15814723
3	0x3d679b1c	0.05654441
4	0x3d0bde40	0.0341475
5	0x3e13888c	0.14407557
6	0x3c4786f0	0.012178168
7	0xbddbfb8d	-0.10741339
8	0x3e069785	0.13143738
9	0xbd017849	-0.031608853
10	0x3dee0f1d	0.116239764
11	0xbe1766be	-0.14785287
12	0xbe54fcaa	-0.20799509
13	0xbe1aeb52	-0.1512883
14	0xbdb5edc9	-0.088832445
15	0xbe2ceafe	-0.16886517
16	0xbb88c113	-0.004173407
17	0x3d357d0d	0.04430871
18	0xbe407eec	-0.18798417
19	0xbd88a7e6	-0.06672649
20	0x3d3e1477	0.046406236
21	0xbddb6283	-0.10712149
22	0xbe1c5b22	-0.1526914
23	0x3e08fcaf	0.13377641
24	0xbc7e1194	-0.015507121
25	0x3dc2c65e	0.09510492
26	0xbdd62564	-0.104563504
27	0x3ce534a8	0.02797921
28	0x3c16bfb0	0.009200975
29	0x3cde1f04	0.027114399
30	0xbca4636d	-0.020066941
31	0xbe1e7f9c	-0.15478367
