back-end/public/model.pth (torch, 99335 bytes, 5 tensors)

fc1.weight f4 [64, 347]
000000 71 38 8f bb 8c 12 59 bd 46 ad 1a bc e9 02 1c bd
       -0.004370742 -0.052996203 -0.009440726 -0.038088713
000010 9f 36 0e bc 3d 20 d1 3c 46 a5 4c bd 77 d1 00 3d
       -0.008680015 0.025528068 -0.049962305 0.03144976
000020 92 89 fe bc bf 49 85 bc 48 35 18 bd cb 03 9c bc
       -0.031071458 -0.016270516 -0.037160188 -0.019044777
000030 4b 9e ab 3c 0a 8e 3d bd 6f aa 23 bc ae 3f 6e bd
       0.020949503 -0.046278037 -0.009989365 -0.0581662
000040 ec c6 b7 3c c0 a5 6e bd 1c c9 49 3d 9f c0 cb bc
       0.02243372 -0.05826354 0.04926406 -0.024872122
000050 36 0f 2c bd 58 52 bd ba 1d 8e 37 bd b0 d4 35 bc
       -0.042006694 -0.0014444096 -0.044813264 -0.011098072
000060 9a 72 c9 bc db e4 2f bd a4 36 6d 3c f3 ec 59 3c
       -0.02459078 -0.042942863 0.014478359 0.013301122
000070 31 2d 38 3d 58 c2 5b bd 60 85 a1 bc 40 db c0 3c
       0.044964973 -0.053652138 -0.019716918 0.023542047
000080 f8 eb 2d 3d ce 0c e2 3c 0a f1 40 bd 1b 75 b7 3b
       0.042461365 0.027593996 -0.047104873 0.005598677
000090 4c e0 ca bc da 67 31 3d 69 8b c4 bc 8c 73 cf 3a
       -0.024765156 0.04331193 -0.023992257 0.0015827282
0000a0 55 39 43 bd db 4a 38 bd 1b f0 3e bd e4 37 02 bd
       -0.047662098 -0.044993263 -0.0466157 -0.031791583
0000b0 eb ab a3 3b 93 1d b6 bc 3c a5 14 bd c8 28 34 bd
       0.0049948595 -0.022230899 -0.036290392 -0.043984205
0000c0 76 92 04 bc 98 f0 07 3d f1 56 fd bc e8 08 aa bc
       -0.00809156 0.033188432 -0.030925246 -0.0207562
0000d0 e4 cc 30 3d e1 e4 0e bd ce 30 23 bd eb 16 4a 3d
       0.04316415 -0.034886245 -0.039841466 0.049338263
0000e0 af fb e3 bb 23 aa 89 bc b2 d6 f7 3b a4 45 9d bc
       -0.0069574933 -0.01680476 0.0075634355 -0.019198246
0000f0 6a fc a5 3c fb 30 3b 3d 58 fb 57 bd 84 22 9b bc
       0.020261962 0.04570101 -0.052729934 -0.018937357
000100 63 73 c8 bc a7 cd 4c bd 41 4d 23 bd 7b 18 9a bc
       -0.024469083 -0.050000813 -0.039868597 -0.018810501
000110 81 ae 12 bd ad fa 2e 3d 84 20 2b 3d b2 dc 7a bc
       -0.03581095 0.04271953 0.041779056 -0.015311407
000120 e0 9b 4e 3c a2 4d e6 bb 1b 7e f7 3c 85 ad 7f 39
       0.012610406 -0.0070282975 0.030211499 0.00024383336
000130 66 29 42 3d 41 cc ed bb 59 ab 54 3d bd c1 b7 3c
       0.047402762 -0.007257015 0.051921222 0.022431249
000140 6c 0e b8 bb c7 e2 49 3d ff b1 2c 3c 7a 2f 49 bc
       -0.0056169536 0.049288537 0.010540484 -0.012279386
000150 35 6f f0 3c f8 d3 3e bd 97 a7 55 bb 97 75 9a 3b
       0.029349903 -0.046588868 -0.0032601112 0.004713725
000160 33 96 36 bd 1a 4d 9b bc c3 54 c1 bb 1d c1 35 3d
       -0.044576835 -0.018957663 -0.005899997 0.04437362
000170 b7 73 37 bd 53 ff ce 3c 16 4c 42 3d b5 d2 7c 3c
       -0.04478809 0.025268232 0.047435842 0.015431096
000180 78 03 4c bd 74 16 16 bc 9f d4 34 3a ae 5e 30 bb
       -0.049807996 -0.009160627 0.0006898138 -0.0026911902
000190 96 54 b8 bc c3 6b cb bb 2d 45 ea bc 49 a1 ba 3c
       -0.022501271 -0.0062079146 -0.028597439 0.022781985
0001a0 18 7f 22 3d f4 72 21 3d 2a 56 ac 3b d0 49 29 3a
       0.039671987 0.03941627 0.005259295 0.00064578373
0001b0 90 07 09 3d be 58 f2 bb 82 69 d0 bc a0 51 23 bd
       0.033454478 -0.007395833 -0.025440935 -0.039872766
0001c0 96 e1 40 3c 46 d4 b2 3b 28 7f c4 ba 44 95 12 bb
       0.011772534 0.005457434 -0.0014991509 -0.0022366801
0001d0 fe ad 14 bd f9 26 9c 3c ec ec 08 bd ff d3 59 3c
       -0.036298744 0.019061552 -0.03342907 0.013295173
0001e0 0f 3d 0d bd 6d a7 75 3c 10 45 4f 3d ec 67 f7 bc
       -0.03448206 0.014993531 0.050602973 -0.030200921
0001f0 b7 7e 58 3c eb a7 27 3c 9c 15 07 bd ba d0 cb 3c
       0.013213805 0.010232906 -0.032979593 0.024879802
000200 42 18 4f bd 92 56 75 bc 3c d2 92 bb 68 8e 18 bd
       -0.050560243 -0.014974253 -0.0044806283 -0.037245184
000210 00 76 f0 3c 02 54 59 bd 20 17 40 bd d0 e8 ed bc
       0.029353142 -0.05305863 -0.046897054 -0.029041678
000220 dc e9 35 3d 7b b0 1e bd 53 d9 44 bd e6 b0 8f 3c
       0.04441248 -0.038742524 -0.04805882 0.017540406
000230 ae 50 d2 bc 45 7f 0c 3b 10 59 4c bd a8 73 49 bc
       -0.025673237 0.0021438163 -0.049889624 -0.012295641
000240 2e 64 0e bd 83 9d 64 bc df a3 72 3c 09 d7 c1 3c
       -0.034763508 -0.013953569 0.014809578 0.023662107
000250 d4 17 0d 3d 40 d8 8a 3c 00 2c d3 3c 55 77 39 bc
       0.034446552 0.01694882 0.025777817 -0.011319955
000260 d1 61 56 3d 9f cf 31 bd 4a 75 23 bd c2 f0 31 bd
       0.05233938 -0.043410894 -0.039906777 -0.043442495
000270 c8 59 43 3d 6d 13 23 3d f5 18 46 3d a0 77 e3 bb
       0.047693044 0.039813448 0.048363645 -0.0069417506
000280 bb 15 04 3b 5d d4 55 3c 4b 0b 6c 3d 6b b9 bb 3c
       0.0020154554 0.01305112 0.057627957 0.022915563
000290 4d c6 37 3c 62 55 01 bd 84 18 c5 bc f6 46 de 3c
       0.011216712 -0.031575568 -0.024059542 0.027133446
0002a0 36 0d e9 3c 3a ca f0 bc 28 3d 3a 3d fc 13 10 bd
       0.028448682 -0.029393304 0.04546848 -0.03517531
0002b0 c2 5a 1d 3d 09 74 89 bc c6 c6 9f bc b9 c0 49 3d
       0.03841663 -0.016778963 -0.019503962 0.04925606
0002c0 2b 76 98 bc 17 31 2c bd 52 07 e0 3c 74 4e d3 3a
       -0.018611034 -0.042039003 0.02734724 0.0016121403
0002d0 fc ea 53 3d ff 02 2a bd 1b db 2d 3d ac 7f 9b 3c
       0.05173777 -0.041506764 0.042445283 0.018981777
0002e0 28 1f 5f bc 51 04 83 bc 9b d7 80 bc 11 18 ef bc
       -0.013618268 -0.01599327 -0.015727809 -0.02918628
0002f0 a7 21 10 3d d8 bf b9 3c 45 1e f3 bc 08 a7 2b ba
       0.035188343 0.022674486 -0.02967752 -0.0006548022
000300 8f 08 c7 3c e7 51 d0 3c 4b 9a b6 bb db a6 2e 3d
       0.024296073 0.02542968 -0.0055725924 0.042639595
000310 63 0b 06 bd b4 d5 31 3d 54 97 a8 3c 7a 18 a4 3c
       -0.032725703 0.043416694 0.020579971 0.020031203
000320 0c f6 da 3c aa 24 31 3b 72 ee 83 3c b1 47 9a bc
       0.026728652 0.002702991 0.01610491 -0.018833013
000330 ae 79 c1 bc 17 a6 32 3d f0 3c d3 3c d7 70 e0 bc
       -0.023617592 0.043615427 0.025785893 -0.027397556
000340 72 a8 4c bd 17 76 8b 3c 6a 34 16 3d ff 9b 1f 3d
       -0.04996533 0.017024083 0.03667108 0.03896713
000350 2b e0 bb bc 48 b2 04 bd a6 bf 15 bd 74 80 d3 bc
       -0.02293404 -0.032396585 -0.036559723 -0.025818087
000360 65 27 66 bd 0e a0 29 bd f7 34 e0 3b 67 0d 38 bd
       -0.056189913 -0.041412406 0.0068422514 -0.044934656
000370 51 c3 1d 3d 7c e2 37 3d 72 61 3e bb 2d 88 cc 3c
       0.038516346 0.044893727 -0.002904978 0.024967277
000380 15 6e 2f bd d9 5f 28 bc 43 58 5a bd 47 37 40 bd
       -0.04282959 -0.010276758 -0.05330683 -0.046927717
000390 ea 26 59 3c 1f 4d 20 bd 71 85 04 3c 82 f0 ba ba
       0.013253907 -0.03913605 0.008088456 -0.0014262351
0003a0 e6 d7 a8 3a 51 e7 ad 3b 4e 6a 0a bc 13 56 05 3c
       0.0012881726 0.005307116 -0.008448197 0.0081381975
0003b0 49 9f 3e 3b bd 49 e5 3c 1d 38 3d 3d bb dc 1e bd
       0.002908664 0.027989263 0.046196092 -0.038784724
0003c0 53 13 2a 3d f6 16 cd 3c 20 18 40 bd d7 98 17 3d
       0.041522335 0.025035363 -0.046898007 0.037010994
0003d0 78 57 4e bd 5b 3f 26 3c 4d d1 d9 bb ca 0f 14 bd
       -0.050376385 0.010146941 -0.006647265 -0.03614787
0003e0 65 71 31 3d 56 b2 05 bd a4 23 37 3c d1 b1 f7 bb
       0.043321032 -0.032640778 0.011177931 -0.007559039
0003f0 e3 b1 07 3d f4 ee 2d 3d 3e 92 b1 bc f6 9d 94 3c
       0.03312863 0.04246421 -0.021676179 0.018141728

fc1.bias f4 [64]
000000 bd ef 74 bc 61 64 ad 3b 1d 06 1c 3d 1f 93 f4 3b
       -0.014949736 0.005291507 0.038091768 0.0074638273
000010 4f bc f9 bc 1c 74 51 b8 4f 17 53 bd 43 ba c5 3c
       -0.0304853 -4.993762e-05 -0.0515359 0.024136668
000020 33 b3 58 3d 1b b9 db 3c 28 ff 87 bc 4b 9e 9e 3c
       0.052905273 0.026821664 -0.01660116 0.01936259
000030 80 5e 07 3d fa 22 8b 3c 95 0f 8a 3c 9e 55 6d 3c
       0.033049107 0.016984452 0.016853133 0.014485745
000040 a8 0e 0d bd 48 c4 43 bc 7d 0a 87 bd 1a f4 e4 bc
       -0.034437805 -0.011948653 -0.06593797 -0.027948428
000050 03 0c fa bc 86 e8 54 bc 0a 02 a9 bc b7 7b 86 bc
       -0.030523306 -0.012994891 -0.020630855 -0.016416414
000060 d3 70 93 bd 33 20 04 3d 84 07 8f bc 55 5f 56 bd
       -0.07199254 0.03225727 -0.017459638 -0.05233701
000070 19 8b f7 3c 3f ac 43 3b 49 cf 01 bd 3e 2d 14 bb
       0.030217694 0.0029857305 -0.031691823 -0.0022609974
000080 21 0d 49 3d db e2 01 bd 0c 69 de 3b a1 d9 57 3d
       0.049084786 -0.031710487 0.006787425 0.05269778
000090 7b 11 c7 bc 8e e5 dc 3c 60 3b 1c bd 3d 16 8a bb
       -0.024300328 0.026964929 -0.038142562 -0.004214077
0000a0 15 4f 56 3b b4 d7 46 3d 52 bc 44 bd fb df 3d bd
       0.0032700945 0.048545554 -0.04803116 -0.046356183
0000b0 c7 21 17 3d a7 ea 02 bc 24 b4 70 bb 71 19 c5 bb
       0.036897447 -0.007990516 -0.0036728466 -0.0060149957
0000c0 69 30 54 3d 73 28 2c bd f7 83 8b 3c 76 17 86 bd
       0.05180398 -0.042030763 0.0170307 -0.065474436
0000d0 5b 36 4b 3d 15 f4 27 bd 85 de f6 3c 72 48 2b 3c
       0.049612384 -0.04100426 0.030135402 0.010454284
0000e0 9d b3 40 bd a2 d7 d6 3c c2 08 c6 bb 1b dc 27 3d
       -0.047046293 0.026225869 -0.0060435245 0.040981393
0000f0 dd b3 92 3c 28 3d 0f 3c 5b 70 b3 3c 59 d8 f1 3c
       0.017908031 0.008742608 0.021904161 0.029522108

fc2.weight f4 [32, 64]
000000 a2 b7 a7 bd 9e e2 96 3d 24 de a3 3d 08 ab 3f 3d
       -0.08189322 0.073674425 0.08001354 0.046793967
000010 dc 64 14 3d 20 1c 82 bd 9a fa 9f bd 54 21 95 bd
       0.036229 -0.06353021 -0.0781147 -0.072817475
000020 a8 af 5d 3d 5e f6 e1 bd a2 3c d7 bd 80 a5 1e bd
       0.054122597 -0.11033319 -0.10509612 -0.03873205
000030 2a ff b4 bd f6 e3 9d bd 40 98 d1 bc 88 4b b6 bd
       -0.08837731 -0.07709496 -0.025585294 -0.08901125
000040 e6 62 e1 bd 68 52 a8 bd 80 55 2d bb e0 2f 96 3c
       -0.110051915 -0.08218843 -0.0026448667 0.018333375
000050 dc 53 7c 3d a0 4b eb 3c 20 ff 8d bc 8c c5 1c bd
       0.061603412 0.028722584 -0.017333567 -0.038274333
000060 30 ef 09 bc 9c cd 4e 3d f0 47 7e bc 60 ac 89 bc
       -0.008418843 0.050489053 -0.015520081 -0.016805828
000070 d4 77 36 bd 40 45 84 bc 4e 3c be bd 78 ef f9 bc
       -0.04454787 -0.016146302 -0.09288846 -0.030509695
000080 0e f7 d9 3d 88 8a d6 3d f8 5c 87 bc d2 8b c5 bd
       0.10642825 0.104756415 -0.016523823 -0.09645809
000090 bc c6 d1 3d a6 76 b7 bd ae c2 d9 bd c8 dd f0 3d
       0.10242984 -0.08958177 -0.10632835 0.117610514
0000a0 52 8b a5 3d 9e af e6 bd c4 92 06 bd 18 73 d2 bc
       0.08083214 -0.11263965 -0.03285481 -0.025689647
0000b0 22 7f b9 3d 8e c6 ba bd b4 92 f1 3d 60 1c 49 3d
       0.09057452 -0.091199026 0.117955595 0.049099326
0000c0 fc 8b 7f bd da 5c e8 bd a0 67 c1 bc 00 b2 8a 3b
       -0.06238936 -0.11345835 -0.023608983 0.004232645
0000d0 80 e6 72 3d 90 61 0a bd da 34 85 bd 4e 8b a0 3d
       0.059301853 -0.03378445 -0.06504221 0.0783907
0000e0 ee 85 eb bd 7a 31 94 bd 4c d9 a3 3d c0 13 01 3c
       -0.115001544 -0.072359994 0.080004305 0.007878244
0000f0 20 5a 8e 3b b0 47 1a bc a0 36 36 3d 42 c0 9b 3d
       0.00434424 -0.009416506 0.04448569 0.0760503
000100 81 15 da bc 9b ed e2 3d 28 2f e9 3c 28 80 e7 3d
       -0.026621582 0.11080476 0.028464869 0.11303741
000110 20 ca a2 bd 4c ca c9 3d 68 c0 96 bd 7c 6f 0f 3d
       -0.079487085 0.09853038 -0.07360917 0.03501843
000120 3c 04 44 3d 44 21 0a 3d 5c ab 18 bd e3 d3 d9 bd
       0.0478556 0.03372313 -0.037272796 -0.10636117
000130 d7 f7 e7 3d b8 bf 83 bc 50 4e 6f 3d 66 c6 9c bd
       0.113265686 -0.01608263 0.058424294 -0.07655029
000140 75 9e 4b 3c cd 6b 66 bd 6e 72 d1 bc 3e 7c a7 3d
       0.012427916 -0.05625515 -0.02556726 0.08177994
000150 40 9b e4 bd 2a 25 b8 3d 2e 74 9b bd 00 f9 b7 bd
       -0.11162424 0.089914635 -0.07590519 -0.0898304
000160 f9 2b 44 bd e8 35 cc 3d 64 38 61 3d ee 84 e6 3c
       -0.047893498 0.09971219 0.05498542 0.028139558
000170 94 ef d0 3d be 77 94 bd 41 85 ef 3c 40 ce a6 bd
       0.10201946 -0.072494015 0.029238345 -0.08144808
000180 67 2c 88 3d e8 bd cb bc 2c a1 95 3c ed 92 0d 3e
       0.06649094 -0.024870828 0.01826533 0.13825579
000190 68 38 5e bd 80 af 19 3c 47 2c 40 be fc 43 79 3d
       -0.054253012 0.009380221 -0.1876689 0.06085585
0001a0 e0 64 2b 3d 18 42 89 3d 8c 1b df bd c8 b1 d1 bd
       0.04184425 0.067020595 -0.10893926 -0.10238987
0001b0 91 0d 58 3d c2 09 f2 3d d0 d7 92 bd 36 b6 c2 3d
       0.052747313 0.118182674 -0.07170069 0.0950741
0001c0 98 7c bc 3d 96 af c4 bd 4a 97 8c bd 2f bd 0f be
       0.09203452 -0.09603803 -0.068647936 -0.14037012
0001d0 30 77 8c 3d cc bc 27 bc 96 88 ec 3d 6c 97 50 3c
       0.06858671 -0.010237884 0.11549489 0.012731414
0001e0 e0 30 63 3d 7a 16 ae bd b6 62 98 3d a4 4e e8 bd
       0.055466533 -0.08500381 0.074407026 -0.113431245
0001f0 26 5c 32 3d a7 37 d7 bd 84 2b c0 bb 28 84 b5 3c
       0.04354491 -0.10508662 -0.0058645625 0.022157744
000200 00 54 b6 bb f6 eb c9 3c 70 cc 10 3c 7e d4 c6 bd
       -0.005564213 0.024648648 0.008837804 -0.097084984
000210 d4 1b 85 bd 7a b8 4a bd 78 af ef bd 66 6a ca 3d
       -0.064994484 -0.049492337 -0.1170339 0.09883575
000220 68 28 44 3d 2c 6d a4 bd d0 50 da 3d 2d 87 d7 3c
       0.047890097 -0.080286354 0.10659945 0.026309574
000230 0e 4b e4 bd 22 83 96 bd 38 39 a9 bd 60 d0 cd 3b
       -0.11147128 -0.0734923 -0.08262867 0.0062809438
000240 fb 01 ff bd 85 b5 7c bd 00 83 de 3d 72 35 f0 3d
       -0.124515496 -0.061696548 0.1086483 0.11728944
000250 0e f4 90 3d 0f 8d de 3d 58 46 d3 3d 58 41 d9 3d
       0.070778 0.108667485 0.103161514 0.106081665
000260 43 e4 c9 bd a0 41 c8 bd b4 f1 71 bd 77 2f c7 bd
       -0.098579906 -0.09778142 -0.059068397 -0.0972585
000270 c0 3b 89 3d 27 6e c1 3d b2 bc eb 3d a8 07 9f bc
       0.067008495 0.09444838 0.115106 -0.01941283
000280 f1 94 d1 3d 7f 37 ec bd 57 78 cb bd 82 5e b0 3c
       0.102334864 -0.115340225 -0.099350624 0.02152944
000290 b8 66 fe 3d 80 75 36 bb a0 83 89 bb 38 e1 87 3d
       0.12421936 -0.0027841032 -0.004196599 0.06634754
0002a0 e2 8d c7 3d d2 c1 54 3d 80 9e a2 3b 14 16 ca bd
       0.09743859 0.051942654 0.0049627423 -0.09867492
0002b0 8e 0d 83 3c a9 81 e6 3d 2e 42 9d 3c 50 36 98 bd
       0.015997674 0.112551995 0.019196596 -0.07432234
0002c0 cc 57 2c bd 68 87 1c 3d ec 96 7e 3d 68 93 cd 3d
       -0.042075917 0.03821507 0.06215565 0.10037881
0002d0 10 45 87 bc a1 6e ca bc 00 5b d9 3b ac cf c4 bc
       -0.016512424 -0.024710955 0.0066331625 -0.024024807
0002e0 a6 25 dc 3d 2a 9e 58 bd 8b a4 92 3d cc 1c 6a 3d
       0.10749368 -0.052885212 0.0716029 0.05715637
0002f0 32 11 dc bd f0 de 30 3d 5f 59 6d bd 00 aa d7 b9
       -0.10745467 0.04318136 -0.05794656 -0.00041134655
000300 30 b5 51 3c 33 de 68 3d f0 80 a4 bd 00 0e 37 3b
       0.012799546 0.05685253 -0.080324054 0.0027931929
000310 50 90 6d bd 7f 12 d5 bd ad 5d 8c 3c f0 ee 20 3c
       -0.057998955 -0.104039185 0.017134512 0.009822592
000320 14 fc 83 3d 50 77 42 3d d6 a7 cd bd 57 7f b9 bd
       0.064445645 0.047477067 -0.10041778 -0.09057491
000330 d5 f7 96 3d 78 78 99 bc d0 e8 a3 3d a0 fa bb 3c
       0.07371489 -0.018734202 0.0800339 0.022946656
000340 e3 ae db 3d df 34 a2 3d e1 ca eb bd f8 52 32 3d
       0.10726716 0.079202406 -0.115133055 0.043536156
000350 94 4a 90 3d 35 ad a4 3d 3c 68 cd bd c4 31 4f 3d
       0.07045475 0.08040849 -0.10029647 0.05058457
000360 21 49 c9 bd 69 2e b2 3c 8a e3 dd 3d 53 aa af 3c
       -0.09828401 0.021750646 0.10834415 0.021443522
000370 68 e6 2d 3d ec 90 80 3d 41 22 bd 3d 42 f0 df 3d
       0.04245606 0.06277642 0.09235049 0.109344974
000380 3b 02 f9 bc 77 0d 92 bd ac ef 16 3c 49 d3 0a 3e
       -0.030396571 -0.071314745 0.009212416 0.13557161
000390 92 c0 f6 3d 3c 00 86 bd 74 6d ff bd ca 45 cc 3d
       0.120484486 -0.065430135 -0.124720484 0.09974249
0003a0 e2 63 cd bd 43 a1 0b bd 18 9e bf bc 80 60 cc 3d
       -0.10028817 -0.034089338 -0.023390815 0.099793434
0003b0 86 ff 21 bd 30 af a5 3d 02 11 94 bc ac e5 68 3d
       -0.039550327 0.08090055 -0.018074516 0.056859657
0003c0 b0 58 1c bd e6 66 94 bd b0 91 89 3d a8 f1 18 be
       -0.038170516 -0.07246189 0.06717241 -0.14935935
0003d0 aa e3 a8 bd 36 88 b3 3d 52 1f ce 3d 11 b9 63 3d
       -0.082465485 0.087662145 0.100645676 0.055596415
0003e0 78 54 6b bd 01 77 7b bc f9 52 be 3d d6 e8 a7 3d
       -0.057453603 -0.015348197 0.092931695 0.08198707
0003f0 a3 62 37 3d 36 75 13 be 99 52 c6 3c c8 28 ef 3d
       0.0447718 -0.14400181 0.024209308 0.116777

fc2.bias f4 [32]
000000 78 7e a1 bd d0 1d d5 3d cd 65 7b 3d af 9e c2 bc
       -0.0788545 0.10406077 0.06137638 -0.023757307
000010 38 71 fb 3c 66 be 42 3a 0f 6b 01 be b0 9a b2 3c
       0.030693635 0.0007428884 -0.12638496 0.021802276
000020 84 6c 07 3d a9 79 04 3b 52 bf de bd 98 88 03 bd
       0.033062473 0.0020214117 -0.10876335 -0.032112688
000030 c2 cb ff 3d de d6 5b 3d 54 b3 69 3d 10 54 12 3d
       0.124900356 0.05367171 0.057055786 0.0357247
000040 04 de d2 3d 3c 62 e0 bd ae 97 7c 3d 65 75 ff 3d
       0.10296252 -0.10956237 0.06166809 0.12473563
000050 bb d7 1c bd c4 11 cd 3d ef 2b ef bd 00 f4 af ba
       -0.038291674 0.10013154 -0.116783015 -0.0013424158
000060 67 09 f4 bd e0 8f 5b 3d 7d d6 b6 bc 04 b5 80 bd
       -0.11915856 0.053604007 -0.022319073 -0.06284526
000070 c5 0e 0c 3d 62 49 76 3d 2f 97 df 3d ea 9c b0 3d
       0.034193773 0.060128577 0.10917508 0.08623679

fc3.weight f4 [1, 32]
000000 2e 03 a9 bd 68 3c 09 be ff fe 0c bd e1 f2 84 bd
       -0.082525596 -0.1340195 -0.03442287 -0.06491638
000010 f0 c7 14 3e 86 79 8b bd 36 ae 88 3d 35 b5 1d be
       0.14529395 -0.06810288 0.06673853 -0.15401156
000020 ac f8 d1 bd 51 b2 e5 bd 56 38 fc 3b ae 52 da bd
       -0.102525085 -0.11215652 0.0076971455 -0.10660301
000030 5a 36 b4 3d 50 24 31 bc be 38 17 be 64 c3 12 3d
       0.08799429 -0.01081188 -0.14767739 0.03583087
000040 46 55 e5 bd 96 b2 c6 bd e9 42 42 3d 8d f4 87 be
       -0.11197905 -0.09702031 0.04742709 -0.26553765
000050 68 f3 c9 3d 35 5d 1c 3e 19 2b 25 be 96 3e 66 bd
       0.09860879 0.1526993 -0.16129722 -0.05621203
000060 db 57 07 be 61 da 1b be 06 7e cd 3d 99 c1 46 3d
       -0.13217108 -0.15220024 0.10033803 0.048524473
000070 77 12 03 3e 0f 37 3b 3e 5f 3d a2 3d 97 59 2e 3e
       0.12800013 0.18282722 0.07921862 0.17026363
