Script/model.pth (torch, 99335 bytes, 5 tensors)

fc1.weight f4 [64, 347]
-0.025498984 0.031567678 -0.013362557 -0.028605707 0.02609609 0.050614804 -0.011020441 -0.0062143467
-0.047738314 -0.0068719387 -0.04401978 -0.0008010566 -0.04008586 0.039695084 -0.031105207 0.027647555
-0.028876713 0.0047732145 0.020610504 -0.020246316 0.04646392 -0.011038024 0.040376432 -0.028773462
0.031265303 0.03938502 -0.0033208728 0.04635933 0.04332979 0.015644118 0.02395513 0.018746704
0.021104932 -0.021155477 0.012839876 -0.017788861 -0.02501043 -0.0065239333 0.025206476 0.0042115487
-0.029424407 0.02561038 -0.016030103 -0.027537255 -0.021782584 0.051321946 0.025483854 -0.00734929
-0.04955937 -0.028561525 0.0036551394 0.017803654 -0.05005979 0.024723433 0.016763106 -0.04645956
0.050206333 -0.021031708 0.0023499504 -0.014089212 -0.051370025 0.0044450723 0.006991327 -0.00015589967
-0.018846542 0.017488375 0.050118595 0.04184591 0.034590878 0.02414944 0.014993608 0.026009515
-0.047691602 0.04146 -0.038610645 -0.016352963 -0.048853505 -0.03745465 -0.03774731 0.008630622
-0.041547306 -0.0063645802 -0.050503884 0.04384736 -0.047204223 -0.043016333 -0.042805396 -0.015125781
0.03859406 0.04903949 -0.0073978603 0.023705162 -0.025684558 0.032462396 -0.045859978 -0.011808548
0.049367815 0.05290486 -0.022783598 -0.0291162 0.010709949 -0.014795888 -0.017033018 0.033264793
0.009707637 -0.04200384 0.0004950911 0.03458318 -0.04381481 0.04991252 0.050892636 -0.018550571
0.050769888 0.0025163628 0.020825773 0.014766008 -0.03751363 -0.019409288 0.035427704 0.0004459992
-0.029225286 0.04969599 0.040294766 -0.0069771707 -0.028691396 0.02631244 0.013052762 0.042317964
-0.017347857 -0.03739723 0.035579123 0.023162857 -0.007712126 0.019875675 -0.05248929 0.0044644885
0.008468766 -0.0022567213 0.008432027 0.04515145 0.0025254898 0.02838768 0.024761133 0.045584917
-0.03225089 0.042545363 -0.053088024 -0.025458733 -0.014543302 -0.041562445 0.039736703 -0.04735183
-0.011339165 0.035466865 0.031798042 -0.031558804 -0.01302037 0.016038544 -0.048469864 0.037229992
0.021564 0.04729271 -0.008114867 -0.017474338 -0.048072156 -0.03891632 -0.04130692 0.03211221
0.03958691 0.00022599846 0.028918616 -0.008499987 0.01986827 0.025438718 -0.00058199465 -0.049393564
0.023122035 -0.021804482 0.0425189 0.028665274 -0.0068085976 0.04657624 0.0025268197 -0.0009315163
0.023170918 0.032295905 -0.022520322 0.027270876 -0.027722584 0.0388584 0.029687703 -0.02589174
0.047533974 -0.005820021 -0.031939395 -0.0016507469 0.048785694 -0.028485626 -0.000892587 0.02964627
0.03212838 0.037184574 -0.01406474 -0.034400046 0.022003174 0.0037622415 -0.010173582 0.042418674
0.014358662 -0.0018773787 0.01597859 -0.030358816 0.035240248 0.02963332 -0.015939958 0.03847789
-0.01703836 -0.04893001 -0.035698503 0.03977012 -0.05193673 -0.030584551 -0.0197961 -0.03745485
-0.048429944 0.011739507 -0.021782953 -0.029788295 0.030740596 -0.028896896 -0.051456142 0.04430464
0.05070302 -0.009622037 -0.020172127 0.019238323 -0.025777299 0.023805708 0.032301366 -0.004820116
0.011977479 -0.032153904 0.042737313 0.033393055 -0.030915277 0.026558295 -0.0020870417 -0.0029645972
0.007170301 0.024545543 -0.012050968 0.051843554 0.0049739666 -0.03269282 0.04777071 -0.010880828
00000000: 3fe3 d0bc 1c4d 013d a0ee 5abc 8456 eabc
00000010: 78c7 d53c 7851 4f3d 148f 34bc b8a1 cbbb
00000020: 4089 43bd 002e e1bb 164e 34bd 00fe 51ba
00000030: 1231 24bd 5097 223d 59d0 febc 207d e23c
00000040: db8e ecbc a068 9c3b 5cd7 a83c 9adb a5bc
00000050: f450 3e3d d4d8 34bc c261 253d 53b6 ebbc
00000060: 0c10 003d 3052 213d 00a3 59bb 48e3 3d3d
00000070: 947a 313d 1828 803c 8c3d c43c b092 993c
00000080: 40e4 ac3c 404e adbc 585e 523c f2b9 91bc
00000090: ace2 ccbc b8c6 d5bb d07d ce3c 0801 8a3b
000000a0: 740b f1bc dccc d13c 9051 83bc cf95 e1bc
000000b0: 6471 b2bc f636 523d 84c3 d03c 50d2 f0bb
000000c0: c4fe 4abd dcf9 e9bc 108b 6f3b f8d8 913c
000000d0: 7f0b 4dbd cc88 ca3c c852 893c 614c 3ebd
000000e0: 28a5 4d3d b04a acbc a001 1a3b 70d6 66bc
000000f0: 6069 52bd f8a7 913b 8017 e53b 0079 23b9
00000100: 1064 9abc c843 8f3c 2849 4d3d 9e66 2b3d
00000110: 2aaf 0d3d 0cd5 c53c c0a7 753c e811 d53c
00000120: 4558 43bd f6d1 293d 3226 1ebd a6f6 85bc
00000130: 9d1a 48bd 0c6a 19bd ec9c 1abd 7467 0d3c
00000140: 822d 2abd f88d d0bb 29dd 4ebd 4a99 333d
00000150: 3759 41bd e531 30bd b654 2fbd 20d2 77bc
00000160: ce14 1e3d a2dd 483d c069 f2bb 5431 c23c
00000170: 6c68 d2bc 4af7 043d acd7 3bbd a478 41bc
00000180: e835 4a3d c4b2 583d aba4 babc 1985 eebc
00000190: c878 2f3c 746a 72bc d488 8bbc aa40 083d
000001a0: c80c 1f3c 380c 2cbd 00c9 013a 18a7 0d3d
000001b0: 2977 33bd 1271 4c3d cc74 503d 5ef7 97bc
000001c0: 16f4 4f3d 90e9 243b d09a aa3c 20ed 713c
000001d0: e4a7 19bd 3a00 9fbc a41c 113d 00d5 e939
000001e0: de69 efbc 068e 4b3d 200c 253d c0a0 e4bb
000001f0: 380a ebbc 308d d73c 40db 553c 9a55 2d3d
00000200: 181d 8ebc d62d 19bd 6abb 113d 08c0 bd3c
00000210: 00b6 fcbb 50d2 a23c 02ff 56bd d84a 923b
00000220: 94c0 0a3c 80e5 13bb 7c26 0a3c baf0 383d
00000230: b082 253b 488d e83c dcd7 ca3c 40b7 3a3d
00000240: 8219 04bd 0c44 2e3d d472 59bd d58e d0bc
00000250: 0847 6ebc 623d 2abd f4c2 223d fef3 41bd
00000260: e8c7 39bc b445 113d aa3e 023d ce43 01bd
00000270: 6453 55bc 4463 833c 5688 46bd 7a7e 183d
00000280: fca6 b03c 00b6 413d 38f4 04bc 5826 8fbc
00000290: 4fe7 44bd b866 1fbd 7231 29bd 1888 033d
000002a0: e225 223d 00fa 6c39 bce6 ec3c 8843 0bbc
000002b0: c8c2 a23c dc64 d03c 0091 18ba e850 4abd
000002c0: 6c6a bd3c 509f b2bc 4c28 2e3d 70d3 ea3c
000002d0: a81a dfbb bac6 3e3d 0099 253b 0031 74ba
000002e0: f0d0 bd3c b648 043d 8a7c b8bc 2c67 df3c
000002f0: 791a e3bc fc29 1f3d a033 f33c ea1a d4bc
00000300: fcb2 423d e0b5 bebb e2d2 02bd e05d d8ba
00000310: 82d3 473d b05a e9bc 80fc 69ba bcdc f23c
00000320: 0c99 033d da4e 183d cc6f 66bc 10e7 0cbd
00000330: 0040 b43c f08f 763b 18af 26bc 34bf 2d3d
00000340: 9840 6b3c 6012 f6ba 88e5 823c 0db3 f8bc
00000350: 1458 103d 94c1 f23c 8494 82bc fe9a 1d3d
00000360: 0894 8bbc d66a 48bd 9838 12bd fee5 223d
00000370: 9cbb 54bd 748c fabc 6e2b a2bc 426a 19bd
00000380: 7a5e 46bd 1057 403c 2a72 b2bc 9506 f4bc
00000390: b4d3 fb3c 2fb9 ecbc adc3 52bd c878 353d
000003a0: f8ad 4f3d c0a5 1dbc 0440 a5bc b099 9d3c
000003b0: ea2a d3bc 3004 c33c 704e 043d 10f2 9dbb
000003c0: 303d 443c d0b3 03bd 520d 2f3d 28c7 083d
000003d0: 0942 fdbc c890 d93c c0c6 08bb b049 42bb
000003e0: d8f4 ea3b bc13 c93c 6c71 45bc e859 543d
000003f0: a8fc a23b e8e8 05bd 38ab 433d 8045 32bc

fc1.bias f4 [64]
0.01822856 0.028268062 0.031068167 0.017931417 -0.002077357 -0.050399873 -0.06857841 -0.002031691
0.03984558 0.052073132 -0.042683527 -0.013674534 -0.016979119 -0.02231688 -0.012872823 -0.050362203
-0.0098484 -0.020565905 -0.0041150087 0.026722051 0.042481206 -0.050865717 -0.052281387 -0.005086124
0.050510257 0.006015189 -0.006702613 0.050117843 0.003176719 0.01766715 -0.008020057 0.027968116
-0.03509259 0.026510336 -0.030845951 -0.002574698 -0.034010634 -0.052704528 -0.018735033 -0.012177548
1.8905848e-05 0.045998327 -0.023442158 0.0124021545 0.0037993118 -0.0032493584 -0.045473207 -0.023438606
0.045684367 -0.051701657 -0.0037881136 -0.037845973 -0.010897431 -0.03793856 -0.052260313 -0.0017001517
-0.028415821 0.028081235 -0.0524645 -0.025588127 -0.05902583 -0.04273186 -0.05502591 0.025309421
00000000: 1054 953c 6c92 e73c ab82 fe3c e8e4 923c
00000010: 4424 08bb 1970 4ebd d672 8cbd 1e26 05bb
00000020: 1e35 233d a34a 553d ecd4 2ebd 270b 60bc
00000030: cb17 8bbc e4d1 b6bc 88e8 52bc 9948 4ebd
00000040: 2f5b 21bc d479 a8bc 32d7 86bb 34e8 da3c
00000050: c600 2e3d 9258 50bd 0225 56bd 80a9 a6bb
00000060: d8e3 4e3d 101b c53b 98a1 dbbb 5e48 4d3d
00000070: 8030 503b b3ba 903c 8f66 03bc 641d e53c
00000080: 3fbd 0fbd 342c d93c a6b0 fcbc 44bc 28bb
00000090: bc4e 0bbd b4e0 57bd 367a 99bc 5784 47bc
000000a0: 0098 9e37 be68 3c3d c509 c0bc 6832 4b3c
000000b0: e0fd 783b 30f3 54bb 1d42 3abd 5202 c0bc
000000c0: 881f 3b3d 1ec5 53bd 0042 78bb 6104 1bbd
000000d0: 238b 32bc 7765 1bbd e90e 56bd a0d7 deba
000000e0: 4cc8 e8bc 9e0a e63c 04e5 56bd 319e d1bc
000000f0: 12c5 71bd 9a07 2fbd d962 61bd b455 cf3c

fc2.weight f4 [32, 64]
0.06506343 0.015149042 -0.10608039 -0.024675801 0.09028573 -0.053106844 0.059164286 0.0819602
-0.1001015 -0.06955914 -0.0007462351 -0.015858233 0.10982413 0.032815795 -0.06304656 0.05022753
0.045055933 0.00047141314 -0.030990658 -0.06573948 -0.14424478 0.030214474 0.070689365 0.026150286
0.10436638 0.081732884 0.052696586 0.05347252 0.04455042 0.13028982 -0.12714575 0.11355479
0.05723664 0.0459861 0.038654774 -0.010836818 0.12406817 0.051377557 0.00965336 0.10813579
0.0046088398 0.013813302 0.068564445 0.11103171 0.07410115 0.11426748 -0.011017772 0.03931503
-0.0010955781 -0.09298201 0.06303452 0.027520372 -0.12136231 -0.07514904 0.08358553 -0.0043972284
0.10760243 0.079370014 -0.023827953 0.0149711175 -0.03535174 -0.036857992 0.11402384 0.023402855
-0.012095943 -0.11878608 -0.045923788 0.111065835 -0.27304062 -0.027640149 -0.0728883 -0.10752453
0.06728166 -0.06371494 0.107381515 -0.017629853 -0.07321221 -0.06487599 0.10457787 -0.00057766633
0.0764265 -0.09315176 -0.11301193 0.122007474 0.086125925 0.036287606 -0.04515727 -0.002323106
-0.08972877 -0.083941564 0.03016992 -0.069688454 0.12231657 0.046700276 0.08503892 0.032637954
0.10379088 -0.11645836 0.028210893 0.09554565 0.023977876 -0.12699369 0.099984184 0.04431148
-0.030687064 -0.12128277 0.22191676 0.03522308 0.09766646 0.115174666 -0.06790047 -0.05967344
-0.001262784 -0.07454267 -0.12263435 -0.06425669 0.058588687 0.114491925 0.050017297 0.044281155
-0.020921052 0.0120524885 -0.04535443 -0.030726612 0.11973989 -0.054150984 -0.023530534 0.01854815
0.119219825 -0.08196722 -0.11431748 -0.12089303 -0.0072864294 0.09603889 0.062934175 0.035826012
0.09667353 -0.10112436 -0.07415728 -0.005659431 -0.06934796 0.088241205 -0.1083812 0.03113605
0.0071228296 0.006444007 0.10241406 -0.12361792 -0.08401969 -0.10423373 0.059515342 -0.112728626
-0.036870793 0.042887792 0.11269386 -0.07881765 0.058102205 0.024528742 0.07763085 -0.05881384
-0.073724255 0.10149829 -0.08320597 -0.10993463 -0.1191002 -0.11062427 -0.07475263 -0.09755695
-0.051937714 -0.032742888 -0.03953728 -0.11275242 -0.100895286 -0.039947927 -0.08657989 -0.08868836
0.09548421 0.10190882 -0.09692353 0.017672986 0.05944486 -0.089920565 0.1115282 -0.066870704
-0.108139426 -0.059355423 -0.06802057 -0.07415035 -0.032382727 0.05860123 -0.0058663934 0.105012104
0.088182375 -0.009012103 0.04373029 0.062280744 -0.011254519 0.07734445 -0.05935362 0.07893315
-0.010406569 -0.09865226 -0.01152499 -0.05881852 0.017992929 0.031000227 -0.07618739 0.03148395
-0.07917428 -0.02632396 0.123876154 0.101090476 0.08091694 0.095926225 -0.08865772 0.11911254
0.10920839 0.08162472 -0.025320962 0.113893 0.026416734 -0.04297526 -0.095186144 0.08042762
0.11497684 0.03794858 -0.051687762 -0.042872116 -0.09573047 0.015760541 -0.06528665 -0.10589853
-0.08473693 -0.026197508 0.12020175 0.012702346 0.016635522 -0.00533472 -0.0147945285 -0.05325815
0.04018344 -0.06260291 -0.04500702 0.06328775 -0.01565054 -0.078171685 0.072982445 0.049912974
0.08039181 -0.034538776 -0.033667877 0.07059942 -0.098115936 -0.0057213753 -0.05775 -0.06212321
00000000: fa3f 853d b033 783c ad40 d9bd e824 cabc
00000010: bae7 b83d 9086 59bd 4056 723d c0da a73d
00000020: 0402 cdbd 0675 8ebd fd9e 43ba 20e9 81bc
00000030: 79eb e03d db69 063d 8e1e 81bd 62bb 4d3d
00000040: 928c 383d 0028 f739 1fe0 fdbc 6ca2 86bd
00000050: e7b4 13be 5884 f73c 96c5 903d 2039 d63c
00000060: 0abe d53d 9263 a73d 60d8 573d 0006 5b3d
00000070: 807a 363d b26a 053e 7f32 02be 6a8f e83d
00000080: f870 6a3d ec5b 3c3d 7854 1e3d e98c 31bc
00000090: 7417 fe3d 4671 523d 2029 1e3c 4c76 dd3d
000000a0: c005 973b 3051 623c 846b 8c3d 9864 e33d
000000b0: 58c2 973d 1205 ea3d e383 34bc cc08 213d
000000c0: 8099 8fba 5a6d bebd 3e18 813d 6772 e13c
000000d0: ce8c f8bd bde7 99bd e42e ab3d a016 90bb
000000e0: aa5e dc3d bf8c a23d d732 c3bc 6b49 753c
000000f0: fccc 10bd 68f8 16bd 5585 e93d 58b7 bf3c
00000100: 102e 46bc 1e46 f3bd 951a 3cbd 7c76 e33d
00000110: fbcb 8bbe 986d e2bc 7646 95bd d235 dcbd
00000120: f8ca 893d fa7c 82bd d7ea db3d 7b6c 90bc
00000130: 48f0 95bd b4dd 84bd ec2c d63d 886e 17ba
00000140: 7f85 9c3d 5ac6 bebd cc72 e7bd 0edf f93d
00000150: ca62 b03d 50a2 143d d4f6 38bd 403f 18bb
00000160: b8c3 b7bd 8ee9 abbd e826 f73c d2b8 8ebd
00000170: 1c81 fa3d ca48 3f3d e328 ae3d 60af 053d
00000180: 5090 d43d b881 eebd 881a e73c 70ad c33d
00000190: 406d c43c a20a 02be 82c4 cc3d f47f 353d
000001a0: 7063 fbbc 1a63 f8bd 263e 633e 1446 103d
000001b0: 5a05 c83d b2e0 eb3d 670f 8bbd 236c 74bd
000001c0: 0084 a5ba d4a9 98bd b827 fbbd 0399 83bd
000001d0: b1fa 6f3d be7a ea3d f0de 4c3d 2860 353d
000001e0: a062 abbc cd77 453c 91c5 39bd 60b6 fbbc
000001f0: 303a f53d 6ccd 5dbd 1bc3 c0bc 4af2 973c
00000200: 8629 f43d 6ede a7bd 481f eabd c496 f7bd
00000210: 00c3 eebb 0ab0 c43d a2e3 803d 4cbe 123d
00000220: c6fc c53d 4a1a cfbd c6df 97bd c072 b9bb
00000230: 4e06 8ebd ceb7 b43d f6f6 ddbd 0811 ff3c
00000240: a066 e93b 4028 d33b 76be d13d 642b fdbd
00000250: 8412 acbd 7e78 d5bd 5cc6 733d 44de e6bd
00000260: d405 17bd 1cab 2f3d 0acc e63d 266b a1bd
00000270: 94fc 6d3d 80f0 c83c ecfc 9e3d c8e6 70bd
00000280: befc 96bd 56de cf3d e467 aabd 6825 e1bd
00000290: ceea f3bd fa8e e2bd e817 99bd f0cb c7bd
000002a0: a4bc 54bd 681d 06bd d8f1 21bd beea e6bd
000002b0: 30a2 cebd 70a0 23bd cc50 b1bd 3ea2 b5bd
000002c0: 3a8d c33d 92b5 d03d d87f c6bd f0c6 903c
000002d0: 747c 733d 4628 b8bd e668 e43d 82f3 88bd
000002e0: 3478 ddbd ac1e 73bd 5e4e 8bbd 24dc 97bd
000002f0: c0a3 04bd d807 703d e03a c0bb 9610 d73d
00000300: f698 b43d 80a7 13bc 881e 333d 181a 7f3d
00000310: e064 38bc c466 9e3d c81c 73bd b4a7 a13d
00000320: 5080 2abc 320a cabd 50d3 3cbc b0eb 70bd
00000330: e865 933c 30f4 fd3c 2208 9cbd 50f5 003d
00000340: 2026 a2bd 58a5 d7bc c8b2 fd3d 8608 cf3d
00000350: c8b7 a53d f874 c43d 2e92 b5bd 46f1 f33d
00000360: a6a8 df3d dc2a a73d e86d cfbc bc40 e93d
00000370: e867 d83c d406 30bd f4f0 c2bd 3cb7 a43d
00000380: fa78 eb3d f86f 1b3d 8cb6 53bd ac9a 2fbd
00000390: 560e c4bd 401c 813c 02b5 85bd 54e1 d8bd
000003a0: 8e8a adbd 289c d6bc 562c f63d 801d 503c
000003b0: 3847 883c e0ce aebb c064 72bc 3825 5abd
000003c0: 6497 243d f435 80bd 4859 38bd 029d 813d
000003d0: 9035 80bc 7a18 a0bd d277 953d 8c71 4c3d
000003e0: 76a4 a43d 8878 0dbd 54e7 09bd 6e96 903d
000003f0: 02f1 c8bd 607a bbbb 448b 6cbd e874 7ebd

fc2.bias f4 [32]
0.040202502 0.070975974 0.068239465 -0.016878635 0.048326597 -0.047241494 -0.040716834 -0.10312615
0.021574134 0.03881246 0.07811743 0.1106691 0.0080759 -0.019666404 -0.010007903 0.08283203
0.11498167 -0.09079013 0.11703694 -0.07508216 0.07053366 -0.06213808 0.003186524 -0.06251575
0.006368178 -0.095689505 0.069633365 0.045184374 -0.0013762563 -0.09674096 0.08113612 0.06439047
00000000: 61ab 243d da5b 913d 22c1 8b3d 1045 8abc
00000010: 1cf2 453d 4c80 41bd b2c6 26bd ce33 d3bd
00000020: 3dbc b03c d0f9 1e3d 08fc 9f3d 7ba6 e23d
00000030: c850 043c 701b a1bc 30f8 23bc d7a3 a93d
00000040: 837b eb3d 2df0 b9bd 10b1 ef3d adc4 99bd
00000050: f473 903d 8084 7ebd 00d5 503b 4208 80bd
00000060: 26ac d03b dcf8 c3bd f09b 8e3d 4013 393d
00000070: 8063 b4ba 2020 c6bd b22a a63d 27df 833d

fc3.weight f4 [1, 32]
-0.015341935 0.17654869 -0.16949812 -0.057434097 -0.04107584 0.12473224 -0.037800986 0.04601033
0.06327723 0.023826387 -0.0076702386 -0.09866856 -0.1177046 0.11426951 0.04048057 0.16381706
-0.00963512 -0.15889929 -0.15038379 0.16265456 -0.18258671 0.16414349 0.0679854 0.0015162579
-0.079379365 -0.04683149 -0.13154154 -0.1766045 -0.16718361 0.076481745 -0.045365438 -0.008808073
00000000: bd5c 7bbc 2ec9 343e ea90 2dbe 0440 6bbd
00000010: 243f 28bd 9e73 ff3d 35d5 1abd 5475 3c3d
00000020: 7e97 813d 8e2f c33c a056 fbbb be12 cabd
00000030: 1c0f f1bd 2206 ea3d f4ce 253d a9bf 273e
00000040: 9fdc 1dbc 7fb6 22be 35fe 19be eb8e 263e
00000050: 03f8 3abe 3b15 283e ee3b 8b3d 2cbd c63a
00000060: a691 a2bd 60d2 3fbd d3b2 06be cfd7 34be
00000070: 2e32 2bbe 76a2 9c3d 1cd1 39bd bc4f 10bc
